examples/Performance/onnx/ED_Timing/models/ED.onnx (onnx, 15961 bytes, 13 tensors)

cond_dense_h.weight f4 [16, 3]
0	0xbe4d862f	-0.20070718
1	0x3e8c7300	0.27431488
2	0xbeab2afd	-0.33431235
3	0xbeba672c	-0.3640684
4	0xbee9e8e7	-0.45685503
5	0xbe89f631	-0.26945642
6	0x3e37246a	0.17884985
7	0x3e45a0ea	0.19299665
8	0xbda469f4	-0.080280215
9	0x3f003354	0.5007832
10	0x3e389537	0.18025671
11	0x3f00a54d	0.5025223
12	0xbe9b3c5d	-0.3031949
13	0xbd744460	-0.05963552
14	0xbecb8e13	-0.39756832
15	0x3eb5653b	0.35428795
16	0x3e82715d	0.25477114
17	0xbdebd1a8	-0.11514598
18	0xbeee3002	-0.46521002
19	0xbedea507	-0.4348528
20	0xbe9de1c4	-0.30836308
21	0x3ec606ba	0.38677007
22	0x3e133e5e	0.1437926
23	0xbeb5e582	-0.35526663
24	0xbbd63d63	-0.0065380796
25	0x3e8292d7	0.25502655
26	0xbe786717	-0.24258076
27	0xbf066635	-0.52499706
28	0x3ca3fc26	0.020017695
29	0x3db856e1	0.09000946
30	0x3e575f82	0.21032527
31	0xbc0a7cc5	-0.008452599
32	0x3e9bf9ea	0.30464107
33	0xbe05ff64	-0.13085705
34	0x3ebd7e88	0.37010598
35	0x3ee46870	0.4461093
36	0x3eb5f324	0.35537064
37	0xbf065698	-0.5247588
38	0x3e9b5964	0.30341637
39	0xbe4fee17	-0.20305668
40	0xbea761b3	-0.32691726
41	0x3e39957c	0.1812343
42	0xbcae3a2f	-0.021267978
43	0xbec71015	-0.38879457
44	0xbea2c5d2	-0.3179155
45	0xbeb032da	-0.34413797
46	0xbe992ef5	-0.29918638
47	0xbee445d5	-0.44584528

cond_dense_h.bias f4 [16]
0	0xbde53319	-0.11191387
1	0xbee2538b	-0.44204363
2	0xbee4ecb2	-0.44711834
3	0xbe8895e9	-0.26676872
4	0xbe11828c	-0.14209956
5	0xbee3f706	-0.445244
6	0x3f0d4898	0.55188894
7	0xbdf4efb4	-0.11959782
8	0x3ef7c259	0.48390463
9	0xbe23978b	-0.15975778
10	0x3e9a5f87	0.30151007
11	0x3eb95521	0.3619776
12	0x3ec3e61f	0.38261506
13	0xbf05a6a1	-0.5220738
14	0xbe0e1c1f	-0.13877915
15	0x3ef2f9a4	0.47456086

state_h.weight f4 [1, 1, 16]
0	0xbdbae060	-0.091248274
1	0x3e0519a8	0.12998068
2	0x3e6098ec	0.21933335
3	0x3e0bff4a	0.13671604
4	0xbda13180	-0.078707695
5	0x3e7f4c2c	0.24931401
6	0x3d327b10	0.043574393
7	0x3e66b538	0.22530067
8	0xbd744d98	-0.05964431
9	0x3cabf6d0	0.020991713
10	0x3e44f9f4	0.19235975
11	0x3e02881c	0.12747234
12	0xbce8b460	-0.028406322
13	0x3dcfd89c	0.10148737
14	0xbccd2490	-0.025041848
15	0x3d0bdee0	0.034148097

cond_dense_c.weight f4 [16, 3]
0	0x3eaadafe	0.33370203
1	0x3ee79640	0.4523182
2	0x3ee70ecc	0.45128477
3	0xbee463aa	-0.44607288
4	0xbe207118	-0.15668142
5	0x3e0031a3	0.12518935
6	0xbdb13838	-0.08653301
7	0xbf0194b3	-0.5061752
8	0x3e3a17fc	0.18173212
9	0xbd712b87	-0.0588794
10	0x3eae3f3f	0.34032628
11	0x3eeb838f	0.4599881
12	0xbeb64e48	-0.356066
13	0x3ee7061c	0.4512185
14	0x3ea7c037	0.32763836
15	0xbed99d26	-0.42502707
16	0x3ebf664f	0.37382743
17	0xbe89ed4a	-0.2693885
18	0xbdbdc003	-0.09265139
19	0xbd966c1c	-0.07344839
20	0xbb532011	-0.0032215158
21	0xbe87ab74	-0.26497996
22	0xbeed7d44	-0.46384633
23	0xbe8c118e	-0.27357143
24	0x3ef5b3ec	0.47988832
25	0x3d99d6de	0.07511686
26	0x3e66fd50	0.22557569
27	0xbf1145c5	-0.56747085
28	0xbea17d5d	-0.31540957
29	0xbd8389b4	-0.06422749
30	0xbf077e31	-0.5292693
31	0xbc5f6729	-0.013635435
32	0x3eb11556	0.3458659
33	0xbea8c9e5	-0.32966533
34	0xbee03fc2	-0.43798643
35	0x3e3b6c8d	0.18303128
36	0xbf0b16b5	-0.54331523
37	0x3ea1bd39	0.31589678
38	0xbcada09c	-0.021194749
39	0xbf133a84	-0.5751116
40	0x3ebc08b9	0.36725405
41	0xbe4b5127	-0.19855176
42	0x3e251601	0.16121675
43	0x3dc73b03	0.097280525
44	0xbef72fc3	-0.48278627
45	0xbe19b9bf	-0.15012263
46	0xbd047f2f	-0.032347854
47	0x3e60a1df	0.21936749

cond_dense_c.bias f4 [16]
0	0xbeb3ae94	-0.3509413
1	0x3d7bcb10	0.061472952
2	0xbefa4359	-0.48879507
3	0x3d40bad6	0.04705318
4	0x3ed77271	0.420795
5	0x3ed482de	0.41506094
6	0xbe80a7ab	-0.2512792
7	0xbdb57a38	-0.08861202
8	0x3cd1211d	0.025528485
9	0x3f10d82b	0.56579846
10	0xbe5ffb53	-0.21873216
11	0xbd8df5c8	-0.06931645
12	0x3e97305a	0.29529077
13	0xbe9c3850	-0.30511713
14	0x3e04989f	0.12948845
15	0xbe154dfa	-0.14580527

state_c.weight f4 [1, 1, 16]
0	0x3e714afe	0.23563763
1	0x3ba7a740	0.0051163733
2	0x3deb4774	0.11488238
3	0xbe190f48	-0.14947236
4	0xbe30c4da	-0.17262593
5	0x3dcfe1b8	0.10150474
6	0xbd89f554	-0.06736246
7	0xbd9ab880	-0.07554722
8	0x3d427cb8	0.047482222
9	0xbe1b218e	-0.15149519
10	0xbe6cb766	-0.23116836
11	0xbe76021a	-0.24024239
12	0xbd2fa560	-0.042882323
13	0x3deb73e4	0.11496714
14	0xbd1374e8	-0.036000162
15	0x3df09e44	0.11748937

dense.0.weight f4 [16, 16]
0	0xbe3ae504	-0.18251425
1	0x3d530090	0.05151421
2	0x3d1bde40	0.03805375
3	0x3db4faac	0.08836874
4	0x3e307f02	0.1723595
5	0xbe017344	-0.12641627
6	0xbe794fd4	-0.24346858
7	0xbe3dbb38	-0.1852845
8	0xbd6b24e0	-0.057408214
9	0x3cb80250	0.02246204
10	0xbe04f65c	-0.12984604
11	0xbe10771e	-0.1410794
12	0xbdbdd460	-0.09269023
13	0x3e7b72e6	0.24555549
14	0x3e2bb92e	0.16769859
15	0xbe5434de	-0.20723292
16	0x3e312512	0.17299297
17	0xbe6c82aa	-0.2309672
18	0xbd9b7cf8	-0.07592195
19	0xbe351c42	-0.17686561
20	0x3e6907d0	0.22756886
21	0x3ccdb650	0.025111347
22	0x3e3a5d0c	0.18199557
23	0x3e00e032	0.12585524
24	0x3e6be502	0.23036578
25	0x3ddb5470	0.107094646
26	0xbd3a0378	-0.045413464
27	0x3d65e6e8	0.056128412
28	0xbe3c2884	-0.1837483
29	0x3c6da420	0.0145044625
30	0x3e47f78e	0.19528028
31	0x3e224a76	0.15848717
32	0x3e551f16	0.2081264
33	0xbe05a0b0	-0.13049579
34	0xbe2ad568	-0.1668297
35	0xbe58f1a8	-0.21185935
36	0x3e0451e2	0.12921861
37	0xbe191abe	-0.14951608
38	0xbe5eebe0	-0.21769667
39	0xbcc22cd0	-0.023703009
40	0x3dedc988	0.11610705
41	0xbd5d2eb0	-0.053999603
42	0xbe7ff844	-0.2499705
43	0xbdf84040	-0.1212163
44	0x3e1089b8	0.14115036
45	0x3e62f7c0	0.22164822
46	0xbdc2dc7c	-0.0951471
47	0x3e06ce1c	0.13164562
48	0x3e32c0f0	0.17456412
49	0xbd159a50	-0.036524117
50	0x3c5c71a0	0.013454825
51	0xbe50661a	-0.20351449
52	0x3deeb5a4	0.11655739
53	0xbe762c98	-0.24040449
54	0xbd87a2d0	-0.06622851
55	0x3dc7e2c0	0.09760046
56	0xbd432c38	-0.047649592
57	0xbe58b494	-0.21162635
58	0xbcfb10a0	-0.030647576
59	0x3e7f1fa2	0.2491441
60	0x3e6024fa	0.21889105
61	0xbd2986b8	-0.041388243
62	0xbe6b60b6	-0.22986111
63	0xbe4e0a62	-0.20121148
64	0xbe223e88	-0.15844166
65	0xbd146a88	-0.03623441
66	0x3e16ff8a	0.14745918
67	0x3e33dd0a	0.17564788
68	0x3e298646	0.16555128
69	0x3dfc4df8	0.12319559
70	0xbe46e564	-0.19423443
71	0xbcc65a90	-0.024213105
72	0xbe25ac9a	-0.16179124
73	0x3e1a04dc	0.15040916
74	0xbe4b3ac6	-0.19846639
75	0xbe0d2436	-0.13783345
76	0x3d9f0cb8	0.07766098
77	0xbd85c058	-0.06530827
78	0x3d5fbe98	0.054625124
79	0xbddf7738	-0.10911411
80	0xbe5dc54c	-0.21657294
81	0x3d0147c0	0.031562567
82	0xbe2be910	-0.16788125
83	0x3d3b8430	0.04578036
84	0x3de19570	0.11014831
85	0xbc993ab0	-0.018704742
86	0xbb9e0380	-0.0048221946
87	0x3dd55dbc	0.10418269
88	0x3cdd7ea0	0.027037919
89	0x3e468be8	0.19389307
90	0xbd6efae8	-0.05834475
91	0x3df49b94	0.11943737
92	0xbdb74ea0	-0.089505434
93	0xbe069e36	-0.1314629
94	0xbe43a956	-0.19107565
95	0xbdc3f034	-0.095672995
96	0x3d1cd2b8	0.038286895
97	0xbcaa4e50	-0.020789295
98	0xbdf1a3a4	-0.1179879
99	0x3dd2282c	0.102615684
100	0xbe2285b4	-0.15871316
101	0xbe70165a	-0.23446026
102	0x3dfdb92c	0.12388834
103	0xbc93d760	-0.018047035
104	0x3dcf9808	0.101364195
105	0xbdcb95b4	-0.09940663
106	0x3dc1145c	0.09427711
107	0xbc7b1200	-0.015324116
108	0xbd9c35b8	-0.076274335
109	0xbd4ef720	-0.050528646
110	0xbe7240fa	-0.23657599
111	0x3e42eea8	0.19036353
112	0xbc1d88e0	-0.009615153
113	0x3de454f0	0.11149013
114	0xbe5b993a	-0.2144517
115	0x3dba8bc0	0.091086864
116	0x3e27c5d2	0.16384056
117	0xbd903040	-0.07040453
118	0x3e6f8088	0.23388875
119	0x3e09e6c6	0.1346694
120	0x3e66b382	0.22529414
121	0x3e1e560c	0.15462512
122	0x3e4ae5bc	0.19814199
123	0xbd051bc8	-0.032497197
124	0x3de49a78	0.11162275
125	0x3e5ce124	0.2157026
126	0x3da5f44c	0.081032366
127	0x3e207d30	0.15672755
128	0x3d987544	0.07444242
129	0x3e6568e4	0.22403294
130	0x3dc0e248	0.0941816
131	0xbe0a8cc8	-0.13530266
132	0x3e5b0ac8	0.21390831
133	0x3daa5420	0.08316827
134	0xbcd67c10	-0.026182204
135	0xbe795bfe	-0.24351498
136	0x3d1bcc40	0.038036585
137	0xbe4d711c	-0.20062679
138	0xbe711bb2	-0.23545721
139	0xbdf61f20	-0.120176554
140	0x3c48a7e0	0.012247056
141	0x3e7c45e0	0.2463603
142	0xbe76f688	-0.24117482
143	0xbd673740	-0.056449175
144	0xbe311660	-0.17293692
145	0xbe14fe58	-0.1455015
146	0x3e1dc2fe	0.15406415
147	0x3e0028ee	0.12515613
148	0x3e47efea	0.19525114
149	0xbcb61f60	-0.022231758
150	0x3e538e2e	0.20659706
151	0x3e377888	0.17917073
152	0x3d24fa40	0.04027772
153	0x3d1f1df0	0.03884691
154	0xbe12275e	-0.1427283
155	0x3dcaf4dc	0.099099845
156	0xbd11a460	-0.03555715
157	0xba49b600	-0.00076946616
158	0xbe73fed0	-0.23827672
159	0xbe5cfdc8	-0.21581185
160	0xbe164144	-0.14673334
161	0x3e7c27a8	0.24624503
162	0x3e0a925c	0.13532394
163	0xbd135f10	-0.03597933
164	0x3e6caf9a	0.23113862
165	0xbe427006	-0.18988046
166	0xbe33b060	-0.1754775
167	0xbd6c7a10	-0.057733595
168	0x3e49fe78	0.19725978
169	0x3e775faa	0.24157587
170	0xbd0b7f98	-0.03405723
171	0xbdc71378	-0.0972051
172	0x3e459a08	0.1929704
173	0x3cdad0b0	0.026710838
174	0x3d6d7e30	0.05798167
175	0xbe441c74	-0.19151479
176	0xbdc59b84	-0.09648803
177	0xbe275928	-0.16342604
178	0xbdb29dbc	-0.08721492
179	0x3e183ae2	0.14866212
180	0xbe54c138	-0.20776832
181	0x3c99f320	0.018792689
182	0x3e6060ee	0.21911976
183	0xbc9dac10	-0.019247085
184	0xbdc828f4	-0.09773436
185	0x3e256cf0	0.16154838
186	0xbe33ed86	-0.17571077
187	0xbe16c4aa	-0.14723459
188	0x3e6db4f8	0.23213565
189	0x3e3034fe	0.17207715
190	0xbca1fe40	-0.019774556
191	0x3bb7ddc0	0.0056111515
192	0xbe325f46	-0.17419156
193	0xbe4a8458	-0.19777048
194	0xbe744838	-0.23855674
195	0xbd42dd30	-0.047574222
196	0x3e719bd2	0.23594597
197	0xbe2c69b6	-0.168372
198	0xbe3d6fac	-0.1849963
199	0xbe7bd71e	-0.2459378
200	0xbdf1bcf4	-0.11803618
201	0x3d26fd30	0.040768802
202	0xbda148ec	-0.07875237
203	0x3c508620	0.01272729
204	0x3e703270	0.2345674
205	0x3e0eedf6	0.13957962
206	0xbe6388c2	-0.22220138
207	0xbd6854b8	-0.05672142
208	0x3dc26074	0.09491053
209	0xbe65b9e4	-0.22434193
210	0xbe4d31f8	-0.20038593
211	0x3d351e28	0.044218212
212	0x3e54c71e	0.20779082
213	0x3c47be80	0.012191415
214	0x3db53930	0.08848798
215	0x3e774e68	0.24151003
216	0x3b58f780	0.0033106506
217	0xbd10b408	-0.03532794
218	0xbd73e9b0	-0.059549034
219	0xbe71e2ee	-0.23621723
220	0xbcf4a380	-0.02986312
221	0xbe163004	-0.14666754
222	0xbe09ee0a	-0.13469711
223	0x3e095212	0.13410214
224	0x3de0dea8	0.10979968
225	0x3d89c9bc	0.06727931
226	0xbba826c0	-0.0051315725
227	0xbde56644	-0.11201146
228	0xbe7e20c2	-0.24817184
229	0x3e6a123e	0.22858521
230	0x3c69a1a0	0.014259726
231	0xbcd79430	-0.026315778
232	0xbc83fd70	-0.01611206
233	0x3d387628	0.045034558
234	0xbdcc392c	-0.09971842
235	0xbe5ea0d6	-0.21741042
236	0x3cb1e040	0.021713376
237	0xbe42c77e	-0.19021413
238	0xbd4142f8	-0.047183007
239	0x3d8f40a0	0.06994748
240	0x3e6b914a	0.23004642
241	0x3e74afcc	0.23895186
242	0xbc7fdee0	-0.015617102
243	0x3e6d9fcc	0.23205489
244	0xbe134a26	-0.14383754
245	0x3e29969e	0.16561362
246	0xbd4a2130	-0.049348056
247	0x3e24b5e8	0.16085017
248	0xbd98baec	-0.074575275
249	0xbdb5d9e0	-0.08879447
250	0xbdbbb9b4	-0.091662794
251	0x3dbf0e20	0.09328866
252	0xbb657400	-0.0035011768
253	0xbde84cf4	-0.11342803
254	0xbe453bda	-0.19261113
255	0xbe05a9dc	-0.13053077

dense.0.bias f4 [16]
0	0x3dee27c0	0.116286755
1	0xbe300cfc	-0.17192453
2	0xbe6747ec	-0.2258603
3	0x3e25b2cc	0.16181487
4	0x3e645a2e	0.22300026
5	0xbd339ad8	-0.043848842
6	0x3e066236	0.13123402
7	0xbe2a06d0	-0.16604161
8	0x3cd31360	0.025766075
9	0x3e4f605c	0.20251602
10	0x3dc5f60c	0.0966607
11	0xbd473798	-0.048637003
12	0x3dfdbf28	0.12389976
13	0x3e51e8e2	0.20498994
14	0xbe13d32c	-0.14436024
15	0xbe652452	-0.22377136

dense.2.weight f4 [16, 16]
0	0xbe176252	-0.147836
1	0xbdb4191c	-0.08793852
2	0xbcdfebc0	-0.027334094
3	0x3e6b219e	0.22962043
4	0xbda77bf4	-0.08177939
5	0xbc212de0	-0.009837598
6	0xbdb05e44	-0.0861173
7	0xbd0738d0	-0.033013165
8	0x3e274c46	0.1633769
9	0xbc414740	-0.0117967725
10	0xbdaad26c	-0.08340916
11	0xbd9d2310	-0.07672703
12	0x3e5dab78	0.21647441
13	0x3c02a820	0.007974654
14	0x3e724fdc	0.23663276
15	0xbe029d22	-0.12755254
16	0xbe15a1c2	-0.14612487
17	0xbe73625e	-0.23767993
18	0x3e7c394c	0.24631232
19	0x3da6e914	0.08149925
20	0x3e321472	0.17390612
21	0x3c2fe5a0	0.010735899
22	0x3e19d30e	0.15021917
23	0xbe24e676	-0.16103539
24	0xbdabab28	-0.08382255
25	0x3d3b4c58	0.045727104
26	0x3e4e2c90	0.20134187
27	0xbc29e300	-0.010369062
28	0x3dc69010	0.096954465
29	0xbc88d310	-0.016702205
30	0x3da2b5f0	0.07944858
31	0xbc460620	-0.012086421
32	0x3e49b738	0.19698799
33	0x3e20e654	0.15712863
34	0xbdf21748	-0.11820847
35	0x3e5044b6	0.20338711
36	0x3e6849fe	0.22684476
37	0x3cbb7410	0.022882491
38	0xbc8f0b50	-0.017461449
39	0xbdeaec60	-0.11470866
40	0x3ccdb050	0.025108486
41	0x3ded4cd0	0.115869164
42	0x3e4ebc56	0.20189032
43	0x3e29a22a	0.16565767
44	0x3d6f87a8	0.05847898
45	0xbe337be4	-0.1752773
46	0x3e63f48e	0.22261259
47	0x3e31af4e	0.1735203
48	0xbc6d17a0	-0.014470965
49	0x3df4b414	0.1194841
50	0x3d87b740	0.06626749
51	0x3d34ce70	0.044142187
52	0xbe4e709a	-0.20160142
53	0x3e516d2e	0.20451805
54	0x3be2f880	0.006926596
55	0x3d4aba88	0.049494296
56	0xbdcbb2f8	-0.09946245
57	0x3e3cbf54	0.18432361
58	0xb9b57400	-0.00034609437
59	0x3e074160	0.13208532
60	0xbdf38640	-0.118908405
61	0x3e40c9b0	0.18826938
62	0x3da4613c	0.080263585
63	0x3e1e28ee	0.15445301
64	0xbe222a06	-0.15836343
65	0x3e4f4a9a	0.20243302
66	0xbdab8c10	-0.08376324
67	0xbd55bf28	-0.052184254
68	0x3df0e16c	0.11761746
69	0x3e615ca8	0.22008002
70	0x3c8c8d60	0.017157257
71	0xbe44d220	-0.19220781
72	0xbe0cda32	-0.1375511
73	0x3d3a7688	0.045523196
74	0x3dcf105c	0.10110542
75	0xbcb5ca70	-0.022191256
76	0x3da99524	0.082803994
77	0x3da2a708	0.07942015
78	0x3b9496c0	0.0045345724
79	0x3d63d9d0	0.055627644
80	0x3d799b98	0.0609394
81	0x3e31e478	0.1737231
82	0xbe0a4c58	-0.13505685
83	0x3dee93c4	0.11649278
84	0x3e387faa	0.1801745
85	0xbe355d36	-0.17711338
86	0x3d80d5b8	0.062907636
87	0xbe0ab03a	-0.13543788
88	0xbe1a179c	-0.15048069
89	0x3e69733a	0.22797862
90	0x3dcaa264	0.09894255
91	0xbd9ea0d8	-0.07745522
92	0x3e1379fe	0.14402005
93	0x3d4ee450	0.050510705
94	0x3db3e710	0.08784306
95	0xbd83883c	-0.06422469
96	0x3e48d34c	0.19611853
97	0x3e0b5a98	0.13608778
98	0x3e2c5b8e	0.168318
99	0x3e335718	0.17513692
100	0xbe4129ca	-0.18863598
101	0x3cd01720	0.025401652
102	0xbe6bc43a	-0.23024073
103	0x3e450034	0.19238359
104	0xbe0d15ba	-0.1377782
105	0x3e34f282	0.17670634
106	0xbd423160	-0.04741037
107	0x3d1e0770	0.03858131
108	0x3e39696c	0.18106622
109	0x3c865620	0.01639849
110	0x3e316b46	0.17326078
111	0xbdbec5a4	-0.09315041
112	0x3e32a830	0.17446971
113	0x3e09a026	0.13439998
114	0x3e7768ee	0.24161121
115	0xbd8a9520	-0.067667246
116	0x3e4b9918	0.1988262
117	0xbb574b00	-0.00328511
118	0xbded38e8	-0.1158312
119	0xbe566266	-0.20935974
120	0xbe2cb86e	-0.1686723
121	0xbe000034	-0.12500077
122	0xbe214584	-0.15749174
123	0xbde4743c	-0.111549824
124	0x3ddc8cb0	0.107690215
125	0x3cf7d3c0	0.030252337
126	0xbd286c38	-0.04111883
127	0x3e7ba584	0.24574858
128	0xbdee381c	-0.11631796
129	0xbe051414	-0.1299594
130	0xbde538cc	-0.11192474
131	0x3e217758	0.15768182
132	0x3c71dca0	0.014762074
133	0xbdf705bc	-0.120616406
134	0xbe4555ce	-0.19271013
135	0x3e0c5c26	0.13707027
136	0x3e602e14	0.21892577
137	0xbe6d43e0	-0.23170424
138	0x3e63ca88	0.22245228
139	0xbce21170	-0.027596205
140	0x3e76239e	0.24037024
141	0x3d863e0c	0.06554803
142	0x3abbed00	0.0014337599
143	0x3da64a50	0.08119643
144	0x3e4e5062	0.20147851
145	0x3df9022c	0.121586174
146	0xbc911500	-0.017710209
147	0x3e6745dc	0.22585243
148	0xbd1029c0	-0.035196066
149	0x3e7158fa	0.23569098
150	0xbde07fd0	-0.10961878
151	0x3dfd26b4	0.12360898
152	0x3e19b87e	0.15011784
153	0x3d393260	0.045214057
154	0xbe6c9e7c	-0.23107332
155	0x3e2314b4	0.15925866
156	0xbc99c3a0	-0.01877004
157	0x3dce70b4	0.1008009
158	0x3e1f14aa	0.15535226
159	0xbdd345b4	-0.10316029
160	0xbcedb500	-0.029016972
161	0x3e708574	0.23488408
162	0x3e3b0bd6	0.18266234
163	0x3d6746f8	0.056464165
164	0x3e5e1b5a	0.21690121
165	0x3e7009a8	0.23441184
166	0xbe07a5b2	-0.13246801
167	0xbd673838	-0.0564501
168	0xbe191eca	-0.14953151
169	0xbd1367e8	-0.035987765
170	0x3db28240	0.087162495
171	0x3d5a5148	0.053300172
172	0xbe7fc404	-0.24977118
173	0x3dcb4154	0.0992457
174	0xbddd383c	-0.108017415
175	0xbda42c60	-0.08016276
176	0xbdde8e14	-0.10866943
177	0xbd80e64c	-0.06293926
178	0x3e6dfcca	0.23240963
179	0xbdb41810	-0.08793652
180	0xbe6b8a16	-0.23001894
181	0x3ddc1ed0	0.107480645
182	0xbdcd0fb4	-0.10012761
183	0xbe298580	-0.16554832
184	0xbe2e643a	-0.17030421
185	0xbb915f40	-0.0044364035
186	0x3e6a1688	0.22860157
187	0xbdd86f38	-0.10568088
188	0x3e4bb22a	0.19892183
189	0x3cc9ddb0	0.024641842
190	0xbdb0e124	-0.08636692
191	0xbd1eb758	-0.03874907
192	0xbe1f5748	-0.15560639
193	0x3dcf4bb0	0.10121858
194	0x3e01fccc	0.1269409
195	0x3e32a882	0.17447093
196	0x3e78ad2e	0.24284813
197	0x3e067f6a	0.13134542
198	0xbd56a140	-0.052399874
199	0x3dad7b8c	0.0847083
200	0xbdadb0f4	-0.08481017
201	0x3dc4b88c	0.09605512
202	0xbd786040	-0.060638666
203	0x3c111160	0.00885424
204	0x3da20930	0.079119086
205	0xbe47c7a0	-0.19509745
206	0xbd5a29b0	-0.053262413
207	0x3d3bf358	0.045886368
208	0xbe1b9902	-0.15195087
209	0x3e649ad8	0.22324693
210	0xbe1995bc	-0.14998525
211	0xbc8c5f90	-0.017135412
212	0xbc8c1e80	-0.017104387
213	0x3de4483c	0.1114659
214	0x3ddb814c	0.10718021
215	0x3dd54974	0.10414401
216	0xbd0f9788	-0.03505662
217	0xbe218048	-0.15771592
218	0xbe76de70	-0.2410829
219	0xbdb762dc	-0.08954403
220	0xbe069a66	-0.13144836
221	0xbe55649a	-0.20839158
222	0xbde596d4	-0.11210409
223	0xbd4411e0	-0.04786861
224	0x3e0e41c0	0.13892269
225	0x3d489200	0.04896736
226	0x3e7d6460	0.24745321
227	0x3e1967c8	0.14980996
228	0xbe22d84c	-0.15902823
229	0xbd167b48	-0.036738664
230	0xbe21714c	-0.15765876
231	0xbd901b18	-0.07036418
232	0x3e129e32	0.14318159
233	0xbe01254c	-0.12611884
234	0xbe34ab16	-0.17643389
235	0x3d29aad8	0.041422695
236	0xbe00a980	-0.12564659
237	0x3e180172	0.14844301
238	0x3e10dddc	0.14147133
239	0x3d7f3a30	0.06231135
240	0x3da65a80	0.0812273
241	0xbe38675a	-0.18008175
242	0xbe0edde2	-0.13951829
243	0x3e48f76a	0.19625631
244	0x3e366524	0.1781202
245	0x3e4fffd6	0.20312437
246	0x3e233386	0.15937623
247	0xbb303900	-0.0026889443
248	0xbe040a6e	-0.12894604
249	0x3dc39814	0.09550491
250	0xbc80c340	-0.015718102
251	0xbe42ba0e	-0.19016287
252	0xbb2c5f80	-0.002630204
253	0x3e6ee578	0.23329723
254	0x3dbcad04	0.092126876
255	0xbe135570	-0.1438806

dense.2.bias f4 [16]
0	0xbd412b40	-0.047160387
1	0x3dc8b84c	0.09800777
2	0xbd669f68	-0.056304365
3	0x3d8ef9b0	0.06981218
4	0x3e06bfdc	0.13159126
5	0x3d61db98	0.05514106
6	0x3e65eeac	0.22454327
7	0x3de4fde0	0.11181235
8	0x3e018242	0.12647346
9	0xbe2088d8	-0.15677202
10	0x3e295356	0.16535696
11	0x3db9e1d0	0.090762734
12	0x3e5271a4	0.20551163
13	0x3db36170	0.08758819
14	0xbe4d5536	-0.20052037
15	0x3d9ca4b4	0.07648602

onnx::LSTM_153 f4 [1, 64, 16]
0	0xbd9a328c	-0.07529172
1	0x3e7593b2	0.23982123
2	0xbc158660	-0.009126276
3	0xbc430520	-0.011903077
4	0xbe3cedda	-0.18450108
5	0x3dc5a3a4	0.096503526
6	0x3cd84e00	0.02640438
7	0x3df0d128	0.117586434
8	0xbe7bf9e4	-0.24607044
9	0x3e404e12	0.18779781
10	0x3e2c82a4	0.1684671
11	0x3d214f38	0.03938219
12	0x3e6c0f7e	0.23052785
13	0xbd5aa808	-0.053382903
14	0x3d76c440	0.060245752
15	0x3c7e7140	0.015529931
16	0xbe54561a	-0.2073597
17	0xbdc92db0	-0.09823167
18	0xbe02fadc	-0.12791008
19	0x3c9e9670	0.019358844
20	0x3e38a1ca	0.18030468
21	0x3e6469b8	0.22305954
22	0xbe0a6120	-0.13513613
23	0xbda08e64	-0.07839659
24	0xbc97c730	-0.018527597
25	0x3df29188	0.11844164
26	0xbe1e0cb2	-0.1543453
27	0x3e7db1fa	0.24774924
28	0x3e17d93e	0.14828965
29	0xbe0d3a96	-0.1379188
30	0xbdbb06e8	-0.09132177
31	0xbd3c40e8	-0.045960337
32	0xbe0be444	-0.13661295
33	0x3e08fcfa	0.13377753
34	0xbdb80610	-0.08985531
35	0x3d953f60	0.072874784
36	0x3d2a1de8	0.041532427
37	0xbbcf3d40	-0.0063244402
38	0xbe5445b0	-0.20729709
39	0xbe021e22	-0.12706807
40	0x3b004900	0.0019574761
41	0xbd2df620	-0.04247105
42	0xbe6fda00	-0.23423004
43	0xbe5aa20a	-0.21350875
44	0xbdebd7b0	-0.115157485
45	0xbdeec510	-0.116586804
46	0xbe2d0d5a	-0.16899624
47	0x3dc96228	0.09833175
48	0xbd1c6b68	-0.038188368
49	0xbe72a1dc	-0.23694557
50	0xbe3cdbac	-0.18443173
51	0xbe1f3372	-0.15546969
52	0x3d505f80	0.050872326
53	0xbddda3c8	-0.108222544
54	0x3d9eada8	0.07747966
55	0x3de71a94	0.11284366
56	0x3e2dd572	0.16975954
57	0x3c361fe0	0.011115998
58	0xbe65c3b0	-0.2243793
59	0xbe430206	-0.1904374
60	0x3c5b2960	0.013376564
61	0x3c827cf0	0.015928715
62	0xbd3c7c88	-0.0460172
63	0xbd8b4cb0	-0.06801736
64	0xbe324eb8	-0.17412841
65	0xbd9aa0cc	-0.07550201
66	0x3e3d9c26	0.18516597
67	0x3de3c2b4	0.11121121
68	0x3de40230	0.1113323
69	0xbdb4f120	-0.088350534
70	0x3d6d5558	0.05794272
71	0xbdcaa72c	-0.09895167
72	0x3db43c30	0.08800542
73	0xbdf45e34	-0.1193203
74	0xbce10340	-0.02746737
75	0x3b1d1900	0.00239712
76	0xbe1e7352	-0.15473679
77	0xbd22dde8	-0.039762408
78	0xbe6220a6	-0.22082767
79	0xbe19a7e2	-0.15005448
80	0xbdfa385c	-0.12217781
81	0xbd89b2bc	-0.06723544
82	0xbd056ee0	-0.03257644
83	0x3e4a34e6	0.19746742
84	0xbd8bc260	-0.068241835
85	0xbcb48ab0	-0.022038788
86	0x3de9b26c	0.114109844
87	0x3e72c760	0.23708868
88	0x3e7cdbe2	0.24693254
89	0x3e7b107a	0.24518004
90	0x3e4fa140	0.20276356
91	0x3e4c3bfe	0.1994476
92	0xbe127d16	-0.14305529
93	0x3e6ce710	0.23135018
94	0xbe4b9908	-0.19882596
95	0xbbf7b600	-0.007559538
96	0x3c93d2b0	0.0180448
97	0x3db13d98	0.08654326
98	0xbe2c272c	-0.16811818
99	0x3d11a138	0.03555414
100	0x3e2b21c6	0.16712102
101	0xbe292e2a	-0.16521516
102	0x3cb5d130	0.022194475
103	0xbddfa848	-0.10920769
104	0x3d357a30	0.04430598
105	0x3e0575de	0.13033244
106	0x3d3dca68	0.046335608
107	0xbe0fd25e	-0.14045092
108	0xbe609972	-0.21933535
109	0x3e61c716	0.22048602
110	0xbd125bb0	-0.03573197
111	0xbdecda8c	-0.11565122
112	0x3e26ced6	0.16289839
113	0xbe394c40	-0.18095493
114	0xbe292b00	-0.1652031
115	0x3dfee798	0.12446517
116	0x3e5532b8	0.20820129
117	0x3db76a4c	0.089558214
118	0xbe718b46	-0.23588285
119	0x3db82488	0.08991343
120	0x3db35b54	0.08757654
121	0xbe5d2bfe	-0.21598813
122	0xbe046f9c	-0.129332
123	0x3c0ae1c0	0.008476675
124	0xbdae4950	-0.08510077
125	0x3e0f1ed6	0.13976607
126	0xbe7b17cc	-0.24520797
127	0x3dcc860c	0.09986505
128	0xbc261c00	-0.010138512
129	0xbe2dad84	-0.16960722
130	0xbe3085f8	-0.17238605
131	0xbe49b6b0	-0.19698596
132	0x3d0c6950	0.03428012
133	0x3ce27540	0.0276438
134	0x3e3c9f7e	0.18420216
135	0xbd21c2d0	-0.03949243
136	0xbdd9a284	-0.106267005
137	0x3dafde10	0.08587277
138	0x3e3a0114	0.18164474
139	0x3decd400	0.11563873
140	0x3d433018	0.047653288
141	0xbe09d90a	-0.134617
142	0xbe78fca6	-0.24315128
143	0x3cf98c70	0.030462474
144	0xbe29f1a6	-0.16596088
145	0xbd9b4764	-0.07581976
146	0x3c116ca0	0.008875996
147	0xbe34d870	-0.1766069
148	0xbdd45104	-0.10367015
149	0x3e619b72	0.22031954
150	0x3e74f640	0.23922062
151	0xbd8af0e8	-0.067842305
152	0x3e6a478e	0.22878858
153	0x3e156800	0.14590454
154	0x3e560afc	0.20902628
155	0x3e65cf0a	0.2244226
156	0xbcfcd610	-0.030863792
157	0x3e6c28b2	0.23062399
158	0x3e1b7bfa	0.15184012
159	0xbe41fdf2	-0.18944529
160	0xbe3222f8	-0.17396152
161	0x3ca29db0	0.019850582
162	0xbd037ce8	-0.03210154
163	0x3dadf7fc	0.08494565
164	0xbd8cce34	-0.068752676
165	0x3e18fa42	0.14939216
166	0xbd2c1628	-0.042013317
167	0x3e53853c	0.20656294
168	0x3cf7e610	0.03026107
169	0xbe5f951c	-0.21834224
170	0xbe37bcfc	-0.17943186
171	0xbe1a7818	-0.15084875
172	0xbe7cfbf0	-0.24705482
173	0x3e000c90	0.12504792
174	0x3d4763d8	0.048679203
175	0x3e4e4146	0.20142087
176	0xbe486b24	-0.19572121
177	0xbe228b62	-0.15873483
178	0xbb572a80	-0.0032831728
179	0xbd217630	-0.039419353
180	0x3e0b435c	0.13599914
181	0x3c499620	0.012303859
182	0xbd5c86c8	-0.053839475
183	0x3d9e4a0c	0.07728967
184	0x3db18894	0.08668628
185	0x3dc60208	0.09668356
186	0x3d47de20	0.04879582
187	0xbe7fc0ae	-0.24975845
188	0x3d15f8a0	0.03661406
189	0xbd4744e8	-0.0486497
190	0xbdf85dc0	-0.121272564
191	0x3e5ca5da	0.21547642
192	0xbe6447f0	-0.22293067
193	0x3e6a881e	0.22903487
194	0xbd400938	-0.04688379
195	0xbe00bb6e	-0.12571499
196	0xbd1cabb0	-0.03824967
197	0xbc715a60	-0.01473102
198	0x3e385316	0.18000445
199	0x3dbd5b6c	0.09245953
200	0xbe07c2ec	-0.1325795
201	0x3b506500	0.0031798482
202	0xbe159904	-0.14609152
203	0x3e4f6288	0.2025243
204	0xbe389322	-0.18024877
205	0xbe0a2d02	-0.13493732
206	0x3d8aa324	0.06769398
207	0x3e08b4f4	0.13350278
208	0xbd101bd8	-0.035182804
209	0xbe13c074	-0.14428884
210	0xbe0e17c2	-0.1387625
211	0x3e197138	0.14984596
212	0x3e26220e	0.16223928
213	0xbe54dc62	-0.20787194
214	0xbe549260	-0.20758963
215	0xbe59c0e2	-0.21264985
216	0x3dc5f46c	0.096657604
217	0x3e4195b0	0.18904757
218	0xbe3e4096	-0.18579325
219	0x3d51fac0	0.051264524
220	0xbde3ea50	-0.11128676
221	0xbe243c30	-0.16038585
222	0x3e40eccc	0.18840331
223	0x3d664d60	0.056226134
224	0xbe6aa584	-0.22914702
225	0xbced0d50	-0.028937012
226	0xbd834bb0	-0.064109206
227	0x3de008f0	0.10939205
228	0xbdebcda4	-0.11513832
229	0x3e277004	0.16351324
230	0x3d27eb28	0.040995747
231	0x3ce8ae60	0.028403461
232	0x3e394ac6	0.1809493
233	0x3cccb590	0.02498892
234	0x3e718e06	0.23589334
235	0xbe7e98ba	-0.24862948
236	0x3de389f4	0.11110297
237	0x3d6a9050	0.057266533
238	0x3e0c0bfe	0.1367645
239	0x3e765906	0.24057397
240	0x3e71773a	0.23580638
241	0x3e228cc4	0.1587401
242	0xbe5c3828	-0.21505797
243	0x3e25a3ce	0.16175768
244	0x3d222780	0.03958845
245	0x3e50fd4e	0.20409128
246	0x3e357f4a	0.17724338
247	0xbe6cd4de	-0.23128077
248	0x3e0c1964	0.13681561
249	0xbe6b177c	-0.22958177
250	0x3db38700	0.087659836
251	0xbe6cf696	-0.2314094
252	0xbe1bc364	-0.15211254
253	0x3daa3498	0.08310813
254	0x3d5b6028	0.0535585
255	0x3db54f04	0.08852962

onnx::LSTM_154 f4 [1, 64, 16]
0	0x3e245f12	0.16051891
1	0xbe16d864	-0.14730984
2	0xbe01fa70	-0.1269319
3	0xbe03a236	-0.12854847
4	0xbd325c20	-0.04354489
5	0x3e5b287a	0.2140216
6	0xbe1558fe	-0.14584729
7	0x3bd28480	0.0064244866
8	0xbc0c5360	-0.0085648
9	0x3e2fe49a	0.17177048
10	0xbe01ed3c	-0.12688154
11	0xbd08c9e8	-0.033395678
12	0x3d156d18	0.036480993
13	0xbe6295f6	-0.22127518
14	0xbd9d2370	-0.07672775
15	0xbb35bb00	-0.002772987
16	0x3c0e07c0	0.00866884
17	0xbe2b5d32	-0.1673477
18	0xbda461e8	-0.08026487
19	0xbde0d360	-0.109778166
20	0xbe0a14f6	-0.13484558
21	0x3c0b4c20	0.008502036
22	0x3e0a3d80	0.13500023
23	0xbe7364cc	-0.2376892
24	0xbe5b8c42	-0.21440223
25	0xbd939954	-0.072069794
26	0x3e261024	0.16217095
27	0x3e17db76	0.14829811
28	0xbe14b468	-0.14521945
29	0x3e25dba8	0.16197073
30	0x3e40709a	0.18792954
31	0xbe45c29e	-0.19312522
32	0x3d5e5968	0.054284483
33	0xbdb62c74	-0.088951975
34	0xbcae6ef0	-0.021293133
35	0x3ddda910	0.10823262
36	0xbdf75ec0	-0.12078619
37	0xbe497526	-0.19673595
38	0x3e66fae8	0.2255665
39	0x3e7c1c9e	0.24620292
40	0xbe5efeb6	-0.21776852
41	0xbe6becf4	-0.23039609
42	0x3de30cd8	0.11086434
43	0x3dafd948	0.08586365
44	0x3d5bff40	0.053710222
45	0x3e063efe	0.13109967
46	0xbe03cf34	-0.1287201
47	0xbe56d2ae	-0.20978805
48	0xbe0ca04c	-0.13733023
49	0x3e0944ee	0.13405201
50	0x3e17f1f2	0.14838389
51	0xbaccb600	-0.0015618205
52	0x3e4eb2cc	0.20185393
53	0xbe71b3d4	-0.23603755
54	0xbe378af2	-0.17924097
55	0x3d6228a8	0.055214554
56	0x3e3af202	0.18256381
57	0xbdc91104	-0.098176986
58	0xbdcd707c	-0.1003122
59	0xbe69cdc0	-0.22832394
60	0x3e134e74	0.14385396
61	0xbdd3fb40	-0.103506565
62	0x3e503ba6	0.20335254
63	0xbe44eee8	-0.1923176
64	0xbe72d83a	-0.23715296
65	0xbc74ad20	-0.014933854
66	0x3e2d91ca	0.16950145
67	0x3dc582c4	0.09644082
68	0xbe3c139c	-0.18366855
69	0x3e55acba	0.20866671
70	0xbd851e78	-0.06499952
71	0x3e0f9cc6	0.14024648
72	0x3d999f18	0.07501048
73	0x3e336172	0.17517641
74	0xbddacf24	-0.1068404
75	0xbdb3090c	-0.0874196
76	0x3ca18240	0.019715428
77	0x3e782e3c	0.24236387
78	0xbe571614	-0.21004516
79	0xbde63750	-0.11241019
80	0x3e65e11e	0.22449157
81	0x3d1bbb40	0.038020372
82	0x3dca2e1c	0.09872076
83	0x3e3045d4	0.17214137
84	0xbe79c222	-0.24390462
85	0xbe13a954	-0.14420062
86	0xbdb0d90c	-0.086351484
87	0xbe2fbde2	-0.17162278
88	0xbcaded20	-0.021231234
89	0x3e2ab920	0.16672182
90	0x3ddb1a4c	0.10698375
91	0x3d72f858	0.05931887
92	0x3e75b346	0.23994169
93	0xbc92eb40	-0.017934442
94	0x3e66db56	0.22544608
95	0xbe04d0dc	-0.12970299
96	0xbe7f44ca	-0.24928585
97	0xbe1ac182	-0.1511288
98	0xbc81f090	-0.01586178
99	0x3df3e3dc	0.11908695
100	0x3e6f71ea	0.23383299
101	0xbe6bf6b6	-0.23043332
102	0x3e5681c6	0.20947942
103	0xbe03fe98	-0.12890089
104	0xbe49a410	-0.19691491
105	0x3dfca908	0.12336928
106	0x3e3a97f0	0.18222022
107	0xbe190c58	-0.14946115
108	0x3dc00280	0.09375477
109	0x3dc48b28	0.095968544
110	0xbe4f2216	-0.20227847
111	0x3e0963da	0.13416997
112	0x3ccbb950	0.024868637
113	0xbd77e7b8	-0.06052372
114	0xbe3d1ffe	-0.18469235
115	0x3e144374	0.14478856
116	0x3e0ef2c6	0.13959798
117	0xbdaff97c	-0.08592507
118	0xbe11f60a	-0.14254013
119	0xbe331570	-0.17488647
120	0xbe0b9a8c	-0.13633174
121	0x3d2e5038	0.04255697
122	0x3e68cff2	0.22735575
123	0x3d970a70	0.07375038
124	0xbcc35f00	-0.02384901
125	0xbe045c24	-0.12925774
126	0x3d260198	0.040528864
127	0x3df9ba38	0.121937215
128	0xbe1e125c	-0.15436691
129	0x3c82d2c0	0.015969634
130	0x3e439860	0.19101095
131	0x3e171e9e	0.14757773
132	0x3d28e3c8	0.041232854
133	0x3de2a044	0.110657245
134	0x3ceb1110	0.02869466
135	0x3ddfa9cc	0.10921058
136	0xbe01379e	-0.12618873
137	0x3e12422a	0.14283052
138	0xbb37a000	-0.0028018951
139	0xbe133df4	-0.14379102
140	0x3e1599f2	0.14609507
141	0xbd747d70	-0.05968994
142	0xbe425680	-0.1897831
143	0xbe0d9620	-0.138268
144	0x3e2e3962	0.17014077
145	0xbd56fb28	-0.052485615
146	0xbe4f8586	-0.20265779
147	0xbddc9e40	-0.10772371
148	0x3e7b64f2	0.24550226
149	0x3e3ecef0	0.18633628
150	0xbda7927c	-0.081822366
151	0xbdf810ac	-0.12112555
152	0xbceea6f0	-0.029132336
153	0xbdc69040	-0.09695482
154	0xbe107574	-0.14107305
155	0xbda0a788	-0.07844454
156	0x3e7e0bbc	0.24809164
157	0xbda12394	-0.07868114
158	0x3e10004e	0.14062616
159	0x3e251782	0.16122249
160	0xbdec0fa0	-0.11526418
161	0x3de940e0	0.11389327
162	0x3e315fb6	0.17321667
163	0xbe5dbc1e	-0.21653792
164	0x3dd12e08	0.10213858
165	0x3e615c82	0.22007945
166	0xbe751794	-0.23934776
167	0xbdb8fccc	-0.09032592
168	0xbe2ee34e	-0.17078897
169	0x3e3c2f22	0.18377355
170	0xbd934874	-0.07191554
171	0x3e2384fa	0.15968695
172	0x3d92b910	0.07164204
173	0x3e251110	0.1611979
174	0x3db9f174	0.09079257
175	0x3e332b92	0.1749709
176	0xbd28ba90	-0.041193545
177	0x3d5f6ba0	0.054546
178	0xbdcd69e4	-0.10029963
179	0xbc148560	-0.009065002
180	0xbd43c958	-0.04779944
181	0x3e0bee7c	0.13665193
182	0xbd8b6d88	-0.06808001
183	0xbe055dc4	-0.1302405
184	0xbe2d0e44	-0.16899973
185	0x3e03c6f8	0.1286887
186	0x3e2bdebc	0.16784185
187	0xba35d800	-0.00069367886
188	0x3dd69f20	0.104795694
189	0xbd204fb0	-0.039138496
190	0x3cbeb650	0.023280293
191	0x3e775644	0.24154001
192	0xbd170fc0	-0.036880255
193	0x3d79dbc8	0.061000615
194	0xbe710840	-0.23538303
195	0xbe5023be	-0.20326135
196	0x3e0adade	0.13560054
197	0x3d8aa2cc	0.06769332
198	0x3e0b47b2	0.13601568
199	0xbe6b84a4	-0.22999817
200	0x3e6e236a	0.23255697
201	0xbc3e8100	-0.011627436
202	0x3b161000	0.002289772
203	0x3e02ffc0	0.12792873
204	0x3dd20728	0.10255271
205	0xbaad6100	-0.0013227761
206	0x3e6ebb58	0.23313653
207	0x3dab2630	0.08356893
208	0xbe7dc560	-0.24782324
209	0xbda79644	-0.08182958
210	0xbe0d610e	-0.13806555
211	0xbde96ba0	-0.11397481
212	0xbe312272	-0.17298296
213	0x3e588ec2	0.21148208
214	0x3e6a42fe	0.22877118
215	0xbcbbbac0	-0.022916198
216	0xbcdf10c0	-0.027229667
217	0x3c765380	0.015034556
218	0x3de04d40	0.10952234
219	0xbde6505c	-0.11245796
220	0xbce92730	-0.028461069
221	0xbdf43010	-0.1192323
222	0xbdae1f78	-0.08502096
223	0xbe1d0c22	-0.1533666
224	0x3e5bd24a	0.21466938
225	0x3e64c66e	0.2234132
226	0x3d2f9020	0.042862058
227	0x3e18ee4c	0.14934653
228	0x3b22dd80	0.0024851263
229	0xbe2f859c	-0.17140812
230	0x3d4998f8	0.049218148
231	0x3e03cb4e	0.12870523
232	0xbe6dee34	-0.23235399
233	0x3dd1f558	0.10251874
234	0xbe08f168	-0.13373339
235	0x3e151ed4	0.14562541
236	0xbe3e6e28	-0.18596709
237	0xbe2a7852	-0.16647461
238	0xbdb444d0	-0.088021874
239	0xbe2098c2	-0.15683272
240	0xbe3bc292	-0.18335941
241	0x3e1afbe8	0.15135157
242	0xbe5f521c	-0.21808666
243	0x3e779792	0.24178913
244	0xbde654d4	-0.112466484
245	0xbdedbf80	-0.11608791
246	0xbe6dfc9e	-0.23240897
247	0xbc351200	-0.011051655
248	0x3d42ee80	0.047590733
249	0x3e0dc800	0.13845825
250	0xbe0e229a	-0.13880387
251	0xbe0c4e18	-0.13701665
252	0xbe1d7b30	-0.15379024
253	0xbe79fe60	-0.24413443
254	0xbd8a0734	-0.06739655
255	0xbc7a6c40	-0.015284598

onnx::LSTM_155 f4 [1, 128]
0	0xbe6037be	-0.21896264
1	0xbe3da888	-0.18521321
2	0xbd3347a8	-0.04376951
3	0xbe44271e	-0.19155547
4	0x3e1c4bf6	0.15263352
5	0xbd62d470	-0.055378377
6	0x3e7b0688	0.2451421
7	0x3d03eb88	0.032207042
8	0x3e6c23b4	0.23060495
9	0xbe702f6e	-0.23455593
10	0xbe365bf4	-0.17808515
11	0x3d9836e4	0.074323446
12	0xbce00b20	-0.027349055
13	0xbb73c780	-0.0037197769
14	0xbdcea368	-0.10089761
15	0x3c1d4be0	0.00960061
16	0x3d82295c	0.06355545
17	0xbd020f98	-0.031753153
18	0x3e477108	0.19476712
19	0xbd540c18	-0.051769346
20	0xbe077210	-0.13227105
21	0xbdf06e08	-0.11739737
22	0xbe0ac61c	-0.13552135
23	0x3dd5f858	0.104477584
24	0x3e358422	0.17726186
25	0x3e33dba0	0.17564249
26	0xbd780c08	-0.06055835
27	0xbe6cbe4c	-0.23119467
28	0x3d3e9810	0.046531737
29	0xbe080fa2	-0.13287213
30	0x3e16a92a	0.14712968
31	0xbe240070	-0.16015792
32	0x3c127d80	0.008941054
33	0x3e4c51fe	0.19953153
34	0xbe413ade	-0.18870112
35	0x3df35bb0	0.118827224
36	0xbe01e140	-0.12683582
37	0x3e3543be	0.17701623
38	0x3e53d05a	0.20684949
39	0x3e102f06	0.14080438
40	0x3d8b9b1c	0.06816694
41	0xbe40dfdc	-0.18835396
42	0xbcf045a0	-0.029330075
43	0x3d6d1e50	0.057890236
44	0x3e31dfbc	0.17370504
45	0x3e0f1ea0	0.13976526
46	0x3c7eba60	0.015547365
47	0xbdafeb08	-0.085897505
48	0x3e0fd0d4	0.14044505
49	0xbd7fa8a0	-0.062416673
50	0xbe032d62	-0.12810281
51	0xbd908678	-0.07056898
52	0xbe4b54f6	-0.19856629
53	0x3dd787f8	0.10523981
54	0x3c0a06a0	0.008424431
55	0x3e5f86d8	0.21828783
56	0xbdcaee60	-0.09908748
57	0xbd448488	-0.047977954
58	0xbd35a3c0	-0.044345617
59	0xbc90dff0	-0.017684907
60	0x3de44970	0.111468196
61	0x3e0d5728	0.13802779
62	0x3e084d52	0.13310745
63	0xbd368920	-0.044564366
64	0xbe0c8566	-0.13722762
65	0xbe209b84	-0.15684325
66	0xbe5f343a	-0.21797267
67	0x3e1901fe	0.14942166
68	0x3e359296	0.177317
69	0x3e0ea97e	0.13931844
70	0xbd6b5fb0	-0.0574643
71	0xbcfc4630	-0.030795187
72	0x3d8e116c	0.06936917
73	0xbd8d97f4	-0.069137484
74	0xbe12e41c	-0.1434483
75	0x3b803000	0.003911972
76	0x3e383114	0.17987472
77	0x3e5a3c2a	0.21312013
78	0xbe67bafe	-0.22629926
79	0xbe3a39f6	-0.18186173
80	0xbddd37cc	-0.10801658
81	0xbe44b98e	-0.19211408
82	0xbd002de8	-0.03129378
83	0x3ddba564	0.10724905
84	0x3e26ed28	0.16301405
85	0xbe3bbd76	-0.18333992
86	0xbe344206	-0.17603311
87	0xbd439f00	-0.047759056
88	0xbe3de890	-0.18545747
89	0x3e016c32	0.1263893
90	0xbe5feffa	-0.21868888
91	0xbde6485c	-0.1124427
92	0x3e19724a	0.14985004
93	0x3d7f8120	0.062379003
94	0x3bc7c9c0	0.0060970485
95	0x3da6e218	0.08148593
96	0xbdb6c4bc	-0.08924243
97	0xbe3533ac	-0.17695493
98	0x3e75d214	0.2400592
99	0x3d2c0370	0.041995466
100	0xbe1d79e4	-0.15378529
101	0xbe463ffa	-0.19360343
102	0xbddc3a58	-0.10753316
103	0xbdbaf188	-0.091281
104	0xbd42ac78	-0.04752776
105	0x3e001556	0.12508139
106	0x3e22f528	0.15913832
107	0xbe765752	-0.24056748
108	0xbe25ce7c	-0.16192049
109	0xbdb792ec	-0.0896357
110	0xbe4519ae	-0.19248077
111	0xbe5d9100	-0.21637344
112	0xbe2521da	-0.16126195
113	0xbe2d1e26	-0.16906032
114	0x3b523a00	0.0032078028
115	0x3d8d2554	0.068918854
116	0x3e41d920	0.18930483
117	0x3cb1f190	0.021721631
118	0xbd1545a0	-0.036443353
119	0xbe214086	-0.1574727
120	0xbe150c04	-0.14555365
121	0x3d1d6e08	0.038435012
122	0x3e537af4	0.20652372
123	0x3ca94520	0.020662844
124	0x3e4b88fc	0.19876474
125	0xbdf2c4bc	-0.1185393
126	0x3e43c91e	0.19119689
127	0xbbd446c0	-0.0064781606
