examples/Performance/onnx/GuitarLSTM_Timing/models/GuitarLSTM.onnx (onnx, 43223 bytes, 8 tensors)

sequential/dense/MatMul/ReadVariableOp:0 f4 [32, 1]
-0.23691024 -0.10153809 -0.015449781 0.10805937 -0.028283158 0.022520972 -0.023668002 0.011569373
0.060491867 -0.069727615 0.12624145 0.35713872 0.0095600635 0.10924792 0.0014298647 0.05658359
-0.15504342 0.06795913 -0.059622362 -0.1102934 -0.015341396 -0.040892854 0.02859833 0.09739177
0.26126248 -0.0055970885 -0.08414828 0.044876967 -0.01082672 -0.003779504 -0.17859402 0.086767405
00000000: 9998 72be 34f3 cfbd 1421 7dbc 3b4e dd3d
00000010: 15b2 e7bc e77d b83c 66e3 c1bc 788d 3d3c
00000020: 52c6 773d 5acd 8ebd 7045 013e e3da b63e
00000030: d0a1 1c3c 60bd df3d 4c6a bb3a 32c4 673d
00000040: b4c3 1ebe 282e 8b3d 9436 74bd 82e1 e1bd
00000050: 7b5a 7bbc 447f 27bd 0c47 ea3c 5675 c73d
00000060: 32c4 853e c867 b7bb ef55 acbd e9d0 373d
00000070: 8e62 31bc 8eb1 77bb 5ae1 36be 1cb3 b13d

sequential/conv1d_1/Conv1D/ExpandDims_1:0 f4 [16, 16, 1, 12]
0.031942487 0.092131056 0.41422448 -0.08530387 -0.09605982 0.15874559 0.2470649 0.1795772
0.32102698 -0.19042665 0.013334751 0.0673241 0.030157894 -0.09302843 0.26632956 0.07478303
-0.36093548 0.021268487 0.054714125 0.14336865 0.39796445 0.40277416 0.093845844 0.033706665
0.0048561394 -0.1314784 0.26111057 0.14943208 -0.20836323 0.109873176 -0.009408646 0.005320323
0.5345949 1.0651884 -0.055829912 -0.012300879 0.11224803 0.39145973 -0.1602961 -0.32707
0.6894663 0.11951101 0.060839925 -0.030361066 -0.52705854 -0.64752966 0.012341201 -0.07142004
-0.049031496 -0.3605087 0.117919914 0.14204548 -0.070960574 0.38724154 0.06749425 0.25380653
0.031004397 -0.30175197 0.10970089 -0.015850574 -0.06409317 0.2580339 0.054214496 0.1241316
-0.14139754 -0.1459067 -0.21294695 -0.07954078 -0.20169914 0.5368445 -0.044185758 0.07434711
-0.054404438 -0.057452466 0.21847722 0.12399369 -0.56351644 -0.04150299 -0.069877684 0.04441023
0.09007822 0.112154424 0.066325456 -0.03392294 -0.10912007 -0.06193068 0.2255702 -0.08707309
0.24297065 0.18937485 0.027237134 0.1793877 -0.0047197985 0.22314452 0.09329796 -0.10893646
0.0054380298 -0.31283584 0.33640337 0.15688223 -0.18814546 -0.14463924 0.13616869 -0.08222107
0.18312347 -0.18456247 0.019381225 0.05888173 0.08245611 -0.13882913 0.027919684 -0.159414
0.6820824 -0.16005622 0.28519025 -0.21362442 0.059418976 0.37727076 -3.5345554e-05 -0.001260668
-0.049247146 -0.40026483 0.039606273 -0.3077584 -0.21083634 -0.26820216 0.09014063 0.183816
-0.36982492 -0.5635789 -0.010535121 -0.056408077 0.059713572 0.20292923 -0.25933227 0.16088605
0.54410297 0.040799644 0.124996416 0.06517045 -0.07163422 0.21405596 0.03716284 0.10987139
0.04163322 0.045660574 0.18171795 0.20613843 0.080916576 0.05290713 0.22864254 0.21962138
0.18944031 0.09648503 0.023362756 -0.07581523 0.082954764 0.1985267 -0.2528315 0.10065549
0.28236595 0.17820264 0.21147107 0.116779745 -0.1574402 -0.4293644 -0.09881669 0.11936352
-0.054145902 0.077258706 -0.14640307 -0.07686749 0.05660299 -0.19431084 -0.20652866 -0.09177721
-0.23578519 -0.020011352 -0.11419496 0.042299062 -0.06751898 -0.078611456 -0.0018023362 0.1950452
-0.12549336 -0.020282079 0.13449442 0.084514484 0.38407043 0.1365468 -0.0334149 -0.11353311
-0.077495635 0.044971142 0.34640515 -0.17945139 -0.17878757 0.23508134 -0.13915335 0.066246875
0.05652389 -0.110881664 0.076385856 0.041721612 -0.07550961 -0.079544425 -0.08782559 -0.0036175328
-0.5693135 0.1853464 0.04920315 -0.13029188 0.97811544 0.80850506 0.1071904 -0.06279206
0.055948168 0.082265146 -0.026383562 0.23486534 -0.04478386 0.4435332 0.030183954 -0.25717434
0.21990159 0.5568228 -0.012403369 -0.047522783 -0.111497104 0.3857128 0.014523508 -0.43602377
0.68442667 -0.045899697 -0.14513092 0.07779261 -0.49774215 -1.0248455 -0.015034378 0.04229489
0.013128459 -0.500696 0.24295188 0.12291606 -0.3354745 0.2896474 -0.19186544 -0.011017255
0.26270947 -0.2963176 0.11439508 -0.08245182 0.07721034 0.2885982 0.15003486 0.1425883
00000000: 20d6 023d 35af bc3d 3b15 d43e ccb3 aebd
00000010: 03bb c4bd 348e 223e 95fe 7c3e 16e3 373e
00000020: a65d a43e 34ff 42be 007a 5a3c 38e1 893d
00000030: b00d f73c b185 bebd 595c 883e d827 993d
00000040: 89cc b8be 403b ae3c eb1b 603d 3bcf 123e
00000050: ffc1 cb3e 6a38 ce3e 4032 c03d 0010 0a3d
00000060: 4020 9f3b 46a2 06be 49b0 853e b904 193e
00000070: 2c5d 55be 3005 e13d b926 1abc 1b56 ae3b
00000080: 36db 083f 1858 883f e8ad 64bd a089 49bc
00000090: 4ce2 e53d 696d c83e a924 24be b875 a7be
000000a0: dd80 303f 30c2 f43d 4933 793d c5b7 f8bc
000000b0: 4fed 06bf 81c4 25bf c032 4a3c ac44 92bd
000000c0: 40d5 48bd 9994 b8be ff7f f13d 5f74 113e
000000d0: c753 91bd 8644 c63e 6d3a 8a3d eef2 813e
000000e0: effc fd3c 3c7f 9abe dcaa e03d 10d9 81bc
000000f0: 4843 83bd 051d 843e 0510 5e3d b538 fe3d
00000100: 84ca 10be 9168 15be c40e 5abe 47e6 a2bd
00000110: 388a 4ebe a46e 093f 20fc 34bd 4c43 983d
00000120: 30d7 5ebd 4753 6bbd 7eb8 5f3e 67f0 fd3d
00000130: 9d42 10bf 0aff 29bd 081c 8fbd 80e7 353d
00000140: ee7a b83d 38b1 e53d a4d5 873d c8f2 0abd
00000150: 587a dfbd 06ab 7dbd e0fb 663e 6053 b2bd
00000160: 4ccd 783e 7beb 413e 6920 df3c 69b1 373e
00000170: 8aa8 9abb ff7f 643e 0013 bf3d 141a dfbd
00000180: 8031 b23b 052c a0be 103d ac3e bca5 203e
00000190: 34a9 40be 4f1c 14be ce6f 0b3e 8563 a8bd
000001a0: b884 3b3e f2fd 3cbe 60c5 9e3c f82d 713d
000001b0: c0de a83d 3929 0ebe d2b7 e43c 6c3d 23be
000001c0: f49c 2e3f c7e5 23be 7504 923e 5cc0 5abe
000001d0: 5061 733d a229 c13e 0040 14b8 003d a5ba
000001e0: 60b7 49bd 83ef ccbe 303a 223d 8292 9dbe
000001f0: 7be5 57be cb51 89be a79b b83d 433a 3c3e
00000200: b159 bdbe b546 10bf 809b 2cbc 280c 67bd
00000210: 3896 743d aecc 4f3e 33c7 84be 50bf 243e
00000220: 554a 0b3f 871d 273d 1ffe ff3d 1678 853d
00000230: f6b4 92bd 7c31 5b3e 1038 183d 4004 e13d
00000240: 9887 2a3d 9506 3b3d 4514 3a3e f415 533e
00000250: 97b7 a53d 26b5 583d 4521 6a3e 6de4 603e
00000260: a4fc 413e f299 c53d 4063 bf3c 0445 9bbd
00000270: 30e4 a93d 954a 4b3e 2173 81be 7724 ce3d
00000280: 4592 903e c17a 363e df8b 583e 382a ef3d
00000290: 0138 21be a7d5 dbbe 6860 cabd dc74 f43d
000002a0: 18c8 5dbd d039 9e3d b0ea 15be b46c 9dbd
000002b0: 89d8 673d 6cf9 46be 407c 53be b1f5 bbbd
000002c0: ac71 71be d9ee a3bc 0cdf e9bd c841 2d3d
000002d0: 6447 8abd 0bff a0bd 5e3c ecba eeb9 473e
000002e0: 5581 00be 9a26 a6bc e8b8 093e ee15 ad3d
000002f0: e1a4 c43e edd2 0b3e 10de 08bd 0c84 e8bd
00000300: 08b6 9ebd a933 383d 045c b13e 1bc2 37be
00000310: 1714 37be 2ab9 703e 377e 0ebe 71ac 873d
00000320: 9885 673d ed15 e3bd 3070 9c3d 48e4 2a3d
00000330: c8a4 9abd 30e8 a2bd e7dd b3bd 2114 6dbb
00000340: 88be 11bf 72cb 3d3e 3e89 493d 3c6b 05be
00000350: c665 7a3f 30fa 4e3f a486 db3d 2099 80bd
00000360: e829 653d a17a a83d 5722 d8bc 8a80 703e
00000370: 486f 37bd c916 e33e 5744 f73c 5bac 83be
00000380: e22d 613e f08b 0e3f 8037 4bbc 40a7 42bd
00000390: 9858 e4bd 267c c53e 02f4 6d3c 823e dfbe
000003a0: 9636 2f3f 5201 3cbd 339d 14be bb51 9f3d
000003b0: 0fd8 febe 232e 83bf c052 76bc 683d 2d3d
000003c0: c018 573c 9d2d 00bf 61c8 783e 6abb fb3d
000003d0: 50c3 abbe aa4c 943e 6078 44be b781 34bc
000003e0: db81 863e f1b6 97be f847 ea3d 80dc a8bd
000003f0: 7420 9e3d 25c3 933e bda2 193e ab02 123e

sequential/conv1d/Conv1D/ExpandDims_1:0 f4 [16, 1, 1, 12]
-0.09125582 -0.7328124 0.94436955 0.12741403 -0.73475593 0.6587102 -0.4578742 0.24265312
-0.044131875 -0.4171849 -0.10189692 -0.13754922 0.06518592 0.423035 0.3328429 -1.3088148
-0.6045727 0.9461008 0.28453 0.34196576 -0.30563128 -0.596312 -0.09013543 -0.16075362
-0.07608698 -0.024479497 0.4251725 -0.6460489 -0.71901554 0.6011326 -0.056730516 0.22779986
-0.014341838 -0.5627153 0.040031508 -0.058331132 0.10451056 -0.6556863 -0.5349754 2.2618196
0.6866191 -1.4803286 -0.1555475 -0.46458334 0.17413828 0.42518932 -0.12332189 -0.030296624
0.01241979 -0.52966255 1.059519 0.21902801 -1.0561427 0.2590385 -0.459446 0.15261786
0.42840627 0.106030546 0.06050901 -0.008109286 0.09467973 0.6743044 -0.106944546 -0.057682727
-0.11108167 -0.26023644 0.48703972 -0.26767334 0.099203005 -0.14805292 -0.15956427 0.08568452
-0.16234292 0.61143667 0.37268534 -1.28579 -0.58282465 0.8043901 0.2834631 0.2263709
-0.28084707 -0.43492904 -0.15077664 -0.057441033 -0.018934667 0.47730988 0.31282943 0.37943643
-1.2371438 0.09916857 0.16331494 0.01873479 0.40346706 -0.4944001 -0.054434136 -0.08697243
-0.08900961 0.49538252 0.22259194 -0.96816254 -0.4940041 0.7364389 0.21725443 0.18627101
-0.41041932 -0.37422433 -0.11990922 -0.100193664 -0.013499245 0.76918495 -1.3413332 0.6019415
-0.4953986 -0.049576156 0.49841386 -0.4352292 0.5188066 -0.41188398 0.15123819 -0.050045744
-0.07440091 -0.061286874 -0.7208235 0.6811472 -0.28507093 0.5891152 0.29132792 -0.37569034
0.13981117 -0.44744718 -0.13610467 -0.04010646 -0.105037846 0.8163291 -0.6062521 0.68112814
0.2548167 -1.0323205 0.37980384 -0.423009 0.53816944 0.19815513 0.16236876 -0.016886309
-0.042741314 -0.46304616 -0.11867092 0.32229617 -0.26726484 0.46505895 -0.24778059 -0.21829803
0.1922426 -0.28839308 -0.026849687 0.1361232 -0.08768573 -0.21532051 0.25381577 0.8275133
0.450113 -1.1552583 -0.29060993 -0.15627737 0.39521238 0.56408215 0.024257809 -0.025020868
-0.16806681 0.6669221 -0.46766236 0.18203594 -0.3442257 -0.036108743 0.36126092 -0.26593402
0.43046203 -0.44330078 -0.0070950836 0.003929138 0.034127504 0.667539 0.26790062 -1.2505246
-0.38549808 0.5709541 0.25921056 0.26754192 -0.31368887 -0.46477544 0.013499692 0.09223972
00000000: 55e4 babd 9899 3bbf 34c2 713f d378 023e
00000010: f718 3cbf 3ba1 283f 7d6e eabe 0f7a 783e
00000020: a0c3 34bd 4299 d5be 55af d0bd b4d9 0cbe
00000030: 3280 853d 0b98 d83e 626a aa3e 3e87 a7bf
00000040: 47c5 1abf a933 723f ebad 913e 2316 af3e
00000050: b47b 9cbe e7a7 18bf ed98 b8bd 999c 24be
00000060: 7ed3 9bbd 3a89 c8bc 36b0 d93e 7663 25bf
00000070: 6711 38bf d3e3 193f 425e 68bd 5e44 693e
00000080: 07fa 6abc 1c0e 10bf 14f8 233d a0ec 6ebd
00000090: a209 d63d 0fdb 27bf 26f4 08bf a7c1 1040
000000a0: 45c6 2f3f 687b bdbf d847 1fbe dedd edbe
000000b0: 4e51 323e 6ab2 d93e 3090 fcbd a030 f8bc
000000c0: 607c 4b3c f797 07bf 529e 873f e148 603e
000000d0: af2f 87bf b2a0 843e 823c ebbe db47 1c3e
000000e0: 1158 db3e 8b26 d93d 4cd8 773d d0dc 04bc
000000f0: 72e7 c13d 379f 2c3f be05 dbbd b944 6cbd
00000100: c97e e3bd b63d 85be 455d f93e 7b0c 89be
00000110: f22a cb3d 2f9b 17be d164 23be 5e7b af3d
00000120: 393d 26be 1d87 1c3f 9dd0 be3e c494 a4bf
00000130: ff33 15bf 82ec 4d3f 1322 913e c6cd 673e
00000140: 30cb 8fbe 05af debe 3165 1abe 4a47 6bbd
00000150: e01c 9bbc f661 f43e 2e2b a03e 7e45 c23e
00000160: ba5a 9ebf e418 cb3d 083c 273e b479 993c
00000170: 3c93 ce3e 0322 fdbe 54f6 5ebd 9a1e b2bd
00000180: ac4a b6bd c7a2 fd3e 24ef 633e 80d9 77bf
00000190: 1bee fcbe 4287 3c3f f277 5e3e d4bd 3e3e
000001a0: 7b22 d2be 559a bfbe f792 f5bd 5632 cdbd
000001b0: f02b 5dbc 4ee9 443f ceb0 abbf d718 1a3f
000001c0: e3a4 fdbe 5e10 4bbd 1a30 ff3e 5dd6 debe
000001d0: 82d0 043f 75e2 d2be 2fde 1a3e c4fc 4cbd
000001e0: 815f 98bd f207 7bbd e487 38bf aa5f 2e3f
000001f0: d1f4 91be 41d0 163f ef28 953e 7c5a c0be
00000200: a92a 0f3e cc17 e5be 065f 0bbe ac46 24bd
00000210: 151e d7bd f2fa 503f 5633 1bbf 6a5e 2e3f
00000220: 5677 823e 1423 84bf a675 c23e a394 d8be
00000230: 79c5 093f 2ee9 4a3e ff43 263e 2855 8abc
00000240: 8411 2fbd 6314 edbe bd09 f3bd 0104 a53e
00000250: f0d6 88be 351c ee3e 32ba 7dbe 8589 5fbe
00000260: 3edb 443e 42a8 93be e0f3 dbbc e163 0b3e
00000270: 9394 b3bd fb7c 5cbe 24f4 813e e9d7 533f
00000280: 3675 e63e 81df 93bf d3ca 94be 2d07 20be
00000290: 4759 ca3e b067 103f 50b8 c63c 90f8 ccbc
000002a0: b519 2cbe 68bb 2a3f 7171 efbe a167 3a3e
000002b0: 5a3e b0be c3e6 13bd 31f7 b83e 8128 88be
000002c0: 8565 dc3e 52f8 e2be e07d e8bb 00c0 803b
000002d0: 48c9 0b3d d6e3 2a3f 452a 893e 3111 a0bf
000002e0: 0160 c5be 0c2a 123f 3fb7 843e 41fb 883e
000002f0: d49b a0be 0cf7 edbe d02d 5d3c 2ee8 bc3d

const_fold_opt__119 f4 [1, 16, 1]
-6.767023e-05 -0.013764624 -0.009223188 0.025692455 0.008949175 0.0015411251 -0.008679027 0.0031376742
-0.009791216 0.0020657901 -0.009492638 0.010674523 -0.0010948696 0.017965687 -0.0015955725 -0.0038134716
00000000: 2eea 8db8 0485 61bc db1c 17bc fc78 d23c
00000010: 8f9f 123c 94ff c93a 7a32 0ebc 70a1 4d3b
00000020: 566b 20bc 3562 073b 0287 1bbc 32e4 2e3c
00000030: ba81 8fba c72c 933c 8722 d1ba 70eb 79bb

const_fold_opt__118 f4 [1, 16, 1]
0.011953686 -0.013156943 -0.078966334 -0.112397164 0.0039748736 -0.11667414 0.002389433 0.014433186
-0.0265549 0.033158507 -0.037194695 0.14369987 0.04880544 0.07001124 -6.048428e-05 0.002801706
00000000: 65d9 433c 3890 57bc 1ab9 a1bd 7c30 e6bd
00000010: a83f 823b daf2 eebd 0998 1c3b 2b79 6c3c
00000020: a989 d9bc 37d1 073d 7759 18bd 0f26 133e
00000030: 37e8 473d 0e62 8f3d 80b0 7db8 d49c 373b

W0__27 f4 [1, 128, 16]
0.07124974 -0.49486545 -0.5812839 0.04647978 0.21891443 0.11537961 -0.5845474 0.38445348
0.2350532 0.6811373 0.016002528 0.70394737 0.049488563 0.3054094 -0.2552779 -0.370525
0.1476013 1.2510769 1.1196883 0.5205783 0.43150273 1.1513952 0.3421839 -0.61813843
-0.6765883 -0.91857916 0.78812015 -1.1815636 -0.8075646 -0.75109553 -0.039652336 -0.58833224
0.37848443 0.2818821 0.28736037 0.12215566 -0.8073619 0.23170887 0.0013944904 0.0016999178
0.12211574 -0.55120105 -0.05308368 -0.43911803 -0.21993825 -0.19088975 0.16243169 -0.4073673
-0.24362224 0.33585364 0.32565674 0.09868406 -0.68326503 0.34187514 -0.027001422 -0.20838323
-0.2956323 0.07299191 -0.008459988 -0.26300427 -0.07529293 0.025280861 0.3244634 -0.41338205
-0.21292986 0.17880659 0.30259466 0.81179965 -0.24960296 0.9334043 -0.36048865 -0.2816667
-0.34388307 0.0026475075 0.24909794 -0.7184564 -0.5594302 -0.5164981 0.36481354 -0.5516118
0.6787545 0.5916291 0.16969799 0.5692956 0.78164774 0.24783543 0.3946396 0.109595016
0.055630963 -0.5440589 0.4427969 -0.79924524 -0.26576278 -0.11817454 -0.12592198 -0.13196413
0.03926144 0.45243576 0.31228417 0.0887372 0.5164784 0.05548543 0.13222331 0.024201158
0.34466386 -0.7402735 0.2177753 -0.50221574 -0.08021828 -0.38606018 0.19527714 0.40921175
0.32896438 0.6583556 0.6976873 0.853672 1.3215872 1.1794363 -0.14173424 -0.49223068
-0.3945055 -0.38761958 0.7443746 -0.67805517 -0.70513034 -0.19118811 -0.55094546 -0.7920638
0.06900722 0.39567125 -0.42457774 0.07577841 0.23715921 -0.2854334 -0.3184497 -0.103143476
0.054556824 -0.13552421 -0.30155376 -0.44193003 0.34469128 -0.011233819 -0.04049556 -0.58081645
0.12509142 -0.21618417 -0.26942924 -0.1053752 -0.2693332 -0.13164349 -0.47977206 0.46158955
0.20127258 0.6068907 -0.17713217 -0.07077671 0.44179484 0.09591377 0.017751938 -0.20518306
-0.3516433 -0.39710882 -0.07281365 -0.08521201 -0.081866145 -0.5557412 -0.29427165 0.26545867
0.23738843 -0.030882588 -0.21127696 0.5794088 0.54143304 0.21331166 -0.4660533 0.26134303
0.5113009 0.20271972 -0.7675572 -1.0919551 0.18524887 -1.1763353 0.66991425 0.6330337
0.6317291 0.019666221 -0.29344726 0.6601127 0.6654693 0.45508304 0.22578348 -0.033356875
-0.35502514 -0.2553668 -0.084553115 0.26535544 -0.38258186 0.2490884 -0.7800122 0.10006668
-0.15967482 0.18204889 -0.03903043 -0.52152675 0.021827854 -0.38895038 0.13519047 -0.32967666
-0.069477685 -0.5690881 -0.35475403 -0.67512506 -0.29599148 -0.5409505 -0.5350975 0.6044492
0.5585117 0.20630324 -0.41467637 0.21137273 0.72056645 0.4965067 0.5200699 0.06742634
0.07232523 0.20219103 0.16799693 0.045174863 0.4350236 0.32925847 -0.2208839 0.22646129
0.099235594 -0.47730383 0.23670454 -0.37008223 -0.03706783 -0.13395528 -0.110338815 0.20178944
0.60184747 0.24231336 0.21567161 0.4118046 -0.86238587 0.6105664 0.06733894 0.10350395
0.510814 -0.053189836 -0.060247846 -1.050705 -0.4093265 -0.21684548 -0.307984 -0.5541056
00000000: 62eb 913d 015f fdbe 06cf 14bf 9561 3e3d
00000010: 1b2b 603e 254c ec3d e6a4 15bf 16d7 c43e
00000020: c9b1 703e 045f 2e3f bc17 833c e535 343f
00000030: 85b4 4a3d 9f5e 9c3e c9b3 82be 74b5 bdbe
00000040: cc24 173e 4a23 a03f f251 8f3f 9f44 053f
00000050: eded dc3e eb60 933f ba32 af3e 523e 1ebf
00000060: e434 2dbf 0128 6bbf 3ec2 493f 7a3d 97bf
00000070: 8ebc 4ebf cc47 40bf 7d6a 22bd f19c 16bf
00000080: b6c8 c13e da52 903e e620 933e bf2c fa3d
00000090: 45af 4ebf 1745 6d3e 55c7 b63a c7cf de3a
000000a0: d117 fa3d 831b 0dbf 466e 59bd 14d4 e0be
000000b0: 7e37 61be 9a78 43be 7e54 263e 7292 d0be
000000c0: 1c78 79be 02f5 ab3e 7bbc a63e de1a ca3d
000000d0: 75ea 2ebf 420a af3e 1632 ddbc 6a62 55be
000000e0: 1e5d 97be c87c 953d c39b 0abc 7fa8 86be
000000f0: 2e33 9abd cf19 cf3c 1120 a63e d0a6 d3be
00000100: 490a 5abe 1319 373e b0ed 9a3e 1ad2 4f3f
00000110: eb97 7fbe 96f3 6e3f f891 b8be 9e36 90be
00000120: 7111 b0be ce81 2d3b 8813 7f3e c2ec 37bf
00000130: d136 0fbf 3839 04bf d7c8 ba3e 6e36 0dbf
00000140: dbc2 2d3f 0175 173f 4fc5 2d3e 5bbd 113f
00000150: 111a 483f 92c8 7d3e 340e ca3e 5a73 e03d
00000160: 4bdd 633d 7247 0bbf 46b6 e23e 569b 4cbf
00000170: 0f12 88be 7e05 f2bd b1f1 00be 9b21 07be
00000180: 9bd0 203d a9a5 e73e b6e3 9f3e d9bb b53d
00000190: ee37 043f b144 633d 8c65 073e 8241 c63c
000001a0: c877 b03e 9082 3dbf 7d00 5f3e 3691 00bf
000001b0: 7b49 a4bd aea9 c5be bbf6 473e 3484 d13e
000001c0: 056e a83e fe89 283f a39b 323f 408a 5a3f
000001d0: c529 a93f c5f7 963f c822 11be a905 fcbe
000001e0: a0fc c9be 1376 c6be 558f 3e3f 0695 2dbf
000001f0: 6c83 34bf d1c6 43be c30a 0dbf b1c4 4abf
00000200: a853 8d3d 6c95 ca3e 4162 d9be b631 9b3d
00000210: ddd9 723e 5424 92be d70b a3be e33c d3bd
00000220: fa76 5f3d dcc6 0abe 4165 9abe a744 e2be
00000230: 607b b03e 0d0e 38bc acde 25bd 63b0 14bf
00000240: f717 003e 625f 5dbe a1f2 89be f4ce d7bd
00000250: 0be6 89be 8dcd 06be afa4 f5be 7755 ec3e
00000260: 661a 4e3e 305d 1b3f 2362 35be 61f3 90bd
00000270: ef32 e23e 706e c43d 836c 913c 821b 52be
00000280: 970a b4be d951 cbbe 531f 95bd a283 aebd
00000290: 70a9 a7bd 0e45 0ebf c6aa 96be 33ea 873e
000002a0: f415 733e 7bfd fcbc fd58 58be 2354 143f
000002b0: 5b9b 0a3f 5f6e 5a3e 8a9e eebe c1ce 853e
000002c0: 9ee4 023f c295 4f3e a17e 44bf 2fc5 8bbf
000002d0: e1b1 3d3e 2892 96bf 807f 2b3f 7f0e 223f
000002e0: 00b9 213f 0e1b a13c b83e 96be 25fd 283f
000002f0: 325c 2a3f a500 e93e c933 673e 38a1 08bd
00000300: dbc5 b5be 70bf 82be 2f2a adbd abdc 873e
00000310: c5e1 c3be 0811 7f3e e1ae 47bf c2ef cc3d
00000320: cc81 23be 066b 3a3e 5fde 1fbd c782 05bf
00000330: 54d0 b23c 8124 c7be 5f6f 0a3e 61cb a8be
00000340: 514a 8ebd c2af 11bf 52a2 b5be ffd4 2cbf
00000350: 328c 97be bb7b 0abf 26fc 08bf 2fbd 1a3f
00000360: 9ffa 0e3f 2841 533e 7650 d4be 1872 583e
00000370: 0b77 383f 2036 fe3e 4d23 053f d216 8a3d
00000380: 401f 943d 2a0b 4f3e 6307 2c3e 4709 393d
00000390: 6abb de3e 9194 a83e 642f 62be 78e5 673e
000003a0: 083c cb3d 2b61 f4be ad62 723e 6b7b bdbe
000003b0: 70d4 17bd 932b 09be 51f9 e1bd e4a1 4e3e
000003c0: ad12 1a3f fe20 783e 05d9 5c3e 0dd8 d23e
000003d0: 52c5 5cbf 144e 1c3f 00e9 893d e1f9 d33d
000003e0: b5c4 023f 96dd 59bd 72c6 76bd 807d 86bf
000003f0: 3e93 d1be be0c 5ebe 14b0 9dbe ddd9 0dbf

R0__28 f4 [1, 128, 32]
-0.28916636 -0.97330135 0.30016688 -1.2023827 1.7691108 0.5378157 0.32138813 -0.09459604
0.5857337 -0.2944533 -0.9515771 0.63908875 -1.0329652 -0.0327422 0.24604623 -0.71119004
0.6028986 0.20102225 1.2277734 1.1089511 -0.00017164125 0.3820457 -0.41041234 -0.83204216
-0.7329496 0.575322 -0.37531173 -0.62175345 0.16274734 1.2399198 0.8708742 -0.05541074
0.669477 -1.832076 0.94537884 -0.8243106 0.55145687 1.1151327 -1.0394912 -1.8278829
-0.68658805 -0.9881804 0.60866356 1.629444 0.52833134 -0.7828881 -0.81038934 -0.43339342
1.1107495 0.6709101 0.445855 0.11079957 0.09662764 -0.46520367 -0.60119516 0.1109898
-1.3517866 0.2369615 -0.34505478 -0.93949944 0.5343475 0.29521 0.25317013 1.7383182
0.45152017 -0.7645255 0.3784083 -0.79648125 0.43953308 0.5546701 -0.13143036 -0.9960484
-0.20456904 -0.48950997 -0.17483571 0.66218174 0.10697712 -0.5545598 -0.08236414 -0.06824368
0.57689273 0.8190698 0.5823288 0.3465098 -0.2390475 0.14909214 -0.4654361 -0.44824424
-0.84492695 0.026587185 -0.7781103 -0.55611384 -0.015892765 0.48468772 0.30843043 0.64797235
0.11938374 -1.1868045 1.0320307 -0.99725705 0.80313665 0.8538068 -0.10624729 -1.0413891
0.27487305 -0.6956596 -0.12803885 0.8293792 -0.01867461 -0.122188 -0.18344226 -0.48519883
0.9748194 1.1000783 1.1539085 0.45247638 -0.90160066 -0.46529877 -0.6650006 -0.7708832
-1.0309732 0.26206565 -0.5876494 -0.6706108 0.13308187 0.5885619 0.8993874 0.8262839
0.47724727 -1.3076392 0.5495922 -0.9733965 0.48167902 0.6702745 0.05948522 -1.1743689
-0.56310606 -0.6504494 -0.31314427 1.7696692 0.3087834 -0.612322 0.84732497 0.06770495
1.2862302 0.7735754 0.8974447 0.048809998 -1.0685866 -0.363533 -0.491763 -0.5749363
-1.2728724 -0.0180396 -0.80826354 -0.18668431 -0.22279644 0.28648385 0.7343924 0.31888792
-0.375836 -0.94339675 0.5978881 -0.79573375 0.38919163 0.38914952 -0.10127522 -0.9295013
0.28524083 -0.31142992 -0.70160705 0.88840693 0.36513162 0.050236676 -0.016039949 -0.7486977
0.6156374 0.72762257 0.3343891 0.49388137 0.57724345 0.10979798 -0.5221485 -0.45195317
-0.9650556 -0.014629655 -0.61006707 -1.110594 -0.2799566 0.61992115 0.36899364 0.8449048
0.87457347 -1.3944726 0.111165926 -0.91915256 0.9151352 0.26090264 -0.2304476 -0.95210195
0.033832483 -0.54253757 -0.4183443 0.45710656 0.8238737 -0.77566487 0.045157444 0.07377641
0.6110782 0.5428428 0.48786795 0.64339423 0.30479985 0.047068067 -0.40775612 -0.16914548
-0.8710004 -0.07631837 -0.97210467 -0.25802618 0.18135805 0.5957959 0.4459721 0.8922135
-0.58826774 -0.69489324 0.17815737 -0.19781 0.38456964 -0.23695934 -0.20253538 -0.33026218
0.56165814 -1.4597557 -0.23610689 2.131403 0.6443113 0.19542123 0.15312965 0.21996498
0.010807612 1.5825151 0.30467683 -0.38762832 -0.493547 -0.7563238 -0.18484372 -0.34830672
-0.33496338 -0.32409027 -1.2600437 0.39583826 0.35421085 0.20777504 -0.12568615 0.7188534
00000000: 9d0d 94be 472a 79bf 79af 993e ade7 99bf
00000010: 3972 e23f 4aae 093f fc8c a43e 92bb c1bd
00000020: a5f2 153f 95c2 96be 8f9a 73bf 529b 233f
00000030: 3438 84bf af1c 06bd 8bf3 7b3e 8d10 36bf
00000040: 9057 1a3f c7d8 4d3e ae27 9d3f 1cf2 8d3f
00000050: 99fa 33b9 7e9b c33e 9121 d2be b700 55bf
00000060: 96a2 3bbf 4d48 133f dc28 c0be 3c2b 1fbf
00000070: 3da7 263e b1b5 9e3f 9df1 5e3f 5ff6 62bd
00000080: d862 2b3f 7781 eabf 5904 723f 0506 53bf
00000090: 472c 0d3f abbc 8e3f 0c0e 85bf 11f8 e9bf
000000a0: 3cc4 2fbf 64f9 7cbf 60d1 1b3f 9f91 d03f
000000b0: b940 073f 5b6b 48bf ad75 4fbf bee5 ddbe
000000c0: 0a2d 8e3f c4c0 2b3f 1b47 e43e e3ea e23d
000000d0: b6e4 c53d 2d2f eebe ede7 19bf 9f4e e33d
000000e0: 5807 adbf 09a6 723e 05ab b0be 0983 70bf
000000f0: ffca 083f c425 973e 849f 813e 3681 de3f
00000100: a72d e73e f1b7 43bf bcbe c13e 32e6 4bbf
00000110: 7b0a e13e dcfe 0d3f ae95 06be 07fd 7ebf
00000120: 8c7a 51be 0da1 fabe 2208 33be be84 293f
00000130: d216 db3d a2f7 0dbf 88ae a8bd 58c3 8bbd
00000140: 3eaf 133f 8fae 513f 8013 153f bc69 b13e
00000150: dec8 74be 9cab 183e a44d eebe 4580 e5be
00000160: 224d 58bf 5ecd d93c 3d32 47bf 7a5d 0ebf
00000170: 8b31 82bc fd28 f83e 98ea 9d3e 84e1 253f
00000180: 767f f43d 36e9 97bf 9519 843f 3d4c 7fbf
00000190: 5d9a 4d3f 1593 5a3f 2e98 d9bd 3d4c 85bf
000001a0: 29bc 8c3e bf16 32bf 9e1c 03be 3252 543f
000001b0: 7ffb 98bc b43d fabd 4ad8 3bbe fb6b f8be
000001c0: c48d 793f 5ecf 8c3f 46b3 933f fcaa e73e
000001d0: 4dcf 66bf a43b eebe 7b3d 2abf 9a58 45bf
000001e0: eef6 83bf 782d 863e 3170 16bf 26ad 2bbf
000001f0: 9d46 083e feab 163f 413e 663f 5787 533f
00000200: c159 f43e b960 a7bf 13b2 0c3f 8330 79bf
00000210: a29e f63e 1c97 2b3f c6a6 733d b851 96bf
00000220: b827 10bf da83 26bf 7254 a0be 8584 e23f
00000230: dc18 9e3e 22c1 1cbf 4aea 583f e5a8 8a3d
00000240: 31a3 a43f 0a09 463f f0be 653f feec 473d
00000250: 72c7 88bf ff20 babe 5cc8 fbbe 062f 13bf
00000260: 7ced a2bf c9c7 93bc 5cea 4ebf 2c2a 3fbe
00000270: c024 64be 03ae 923e 2401 3c3f 4745 a33e
00000280: 946d c0be 7382 71bf 320f 193f 35b5 4bbf
00000290: 2044 c73e 9b3e c73e 6269 cfbd ccf3 6dbf
000002a0: 160b 923e be73 9fbe 859c 33bf a36e 633f
000002b0: 88f2 ba3e f9c4 4d3d 3666 83bc a7aa 3fbf
000002c0: 6a9a 1d3f 7945 3a3f 0c35 ab3e 05de fc3e
000002d0: 3ac6 133f c3dd e03d 86ab 05bf 6866 e7be
000002e0: e20d 77bf 38b1 6fbc 5b2d 1cbf f227 8ebf
000002f0: 7956 8fbe 27b3 1e3f bcec bc3e ae4b 583f
00000300: 0ce4 5f3f 147e b2bf f6aa e33d 954d 6bbf
00000310: 4d46 6a3f 0895 853e 75fa 6bbe f4bc 73bf
00000320: ee93 0a3d bee3 0abf 3931 d6be df09 ea3e
00000330: 63e9 523f f991 46bf 03f7 383d 1618 973d
00000340: 9f6f 1c3f bff7 0a3f d4c9 f93e 7cb5 243f
00000350: ba0e 9c3e 72ca 403d 69c5 d0be 7934 2dbe
00000360: e2f9 5ebf ce4c 9cbd dadb 78bf 021c 84be
00000370: edb5 393e 1586 183f 7556 e43e 1b68 643f
00000380: b798 16bf 86e4 31bf e36e 363e b48e 4abe
00000390: 50e6 c43e 78a5 72be 6f65 4fbe 2018 a9be
000003a0: d4c8 0f3f 46d9 babf 01c6 71be e868 0840
000003b0: 96f1 243f 811c 483e 05ce 1c3e 803e 613e
000003c0: 6912 313c db8f ca3f 9afe 9b3e 3877 c6be
000003d0: 31b2 fcbe 709e 41bf ac47 3dbe 4255 b2be
000003e0: 5280 abbe 29ef a5be 1d49 a1bf 50ab ca3e
000003f0: 205b b53e fbc2 543e dfb3 00be c706 383f

B0__29 f4 [1, 256]
0.20803994 -1.2017121 -0.90306824 -0.5557661 -0.8228588 -0.5711765 -1.1131128 -0.77611846
-0.97700316 -0.8669959 -1.3828181 0.1899138 -0.6773792 -0.34755522 -1.1638166 -0.82695067
-0.49682543 -0.6419476 -0.7000774 -0.67969376 -1.3068782 -1.3858767 -0.912089 -0.5977444
-0.6791279 -1.4520897 -0.89264554 -0.8490611 -1.4240881 -0.7626107 -0.2621002 -0.94260806
-0.30833346 -0.89004666 -0.97697085 -0.5145174 -0.94307196 -0.7824607 -1.0052235 -0.9766079
-0.8775012 -1.0177163 -1.4252807 -0.26156878 -0.71799636 -0.65338695 -1.2041752 -0.8132625
-0.6900896 -0.7860829 -0.70851207 -0.6840338 -1.3844948 -1.4553092 -1.0480063 -0.6963767
-0.48543975 -1.4555084 -1.0534451 -1.0329602 -2.0788815 -0.81225204 -0.6997694 -1.1872835
-0.06718198 0.67563146 0.39226606 0.47599623 -0.00017865119 0.31998888 0.3682955 -0.05885723
0.30698326 0.35725206 0.56921905 0.037493125 0.5308654 -0.058474258 0.33703497 0.33298123
0.3325836 0.13787684 0.3826282 0.32119146 0.05320652 -0.2513019 0.4605101 0.7243799
0.15451685 0.28805903 0.09722506 0.2994396 -0.59533316 0.5056214 0.5196506 0.59156245
-0.05079677 0.16584195 -0.034674235 0.067436524 -0.04058601 -0.097647466 0.07374608 0.10518853
0.050488144 0.025885275 -0.1750379 0.11395317 0.02555997 0.044452343 0.03443545 -0.04351819
-0.044004917 -0.04293835 -0.039044425 -0.013908833 0.05720351 -0.016622575 0.03229119 -0.06591367
0.018983074 0.0010732673 0.16367342 -0.009178929 -0.07275531 0.0061418833 0.061081525 -0.16179141
0.0 0.0 0.0 0.0 0.0 0.0 0.0 0.0
0.0 0.0 0.0 0.0 0.0 0.0 0.0 0.0
0.0 0.0 0.0 0.0 0.0 0.0 0.0 0.0
0.0 0.0 0.0 0.0 0.0 0.0 0.0 0.0
0.0 0.0 0.0 0.0 0.0 0.0 0.0 0.0
0.0 0.0 0.0 0.0 0.0 0.0 0.0 0.0
0.0 0.0 0.0 0.0 0.0 0.0 0.0 0.0
0.0 0.0 0.0 0.0 0.0 0.0 0.0 0.0
0.0 0.0 0.0 0.0 0.0 0.0 0.0 0.0
0.0 0.0 0.0 0.0 0.0 0.0 0.0 0.0
0.0 0.0 0.0 0.0 0.0 0.0 0.0 0.0
0.0 0.0 0.0 0.0 0.0 0.0 0.0 0.0
0.0 0.0 0.0 0.0 0.0 0.0 0.0 0.0
0.0 0.0 0.0 0.0 0.0 0.0 0.0 0.0
0.0 0.0 0.0 0.0 0.0 0.0 0.0 0.0
0.0 0.0 0.0 0.0 0.0 0.0 0.0 0.0
00000000: 6c08 553e b4d1 99bf 7b2f 67bf b046 0ebf
00000010: e0a6 52bf a038 12bf 7b7a 8ebf b3af 46bf
00000020: e11c 7abf 71f3 5dbf 2f00 b1bf c378 423e
00000030: b968 2dbf c2f2 b1be f1f7 94bf 0ab3 53bf
00000040: e75f febe ae56 24bf 4638 33bf 6900 2ebf
00000050: c947 a7bf 6864 b1bf aa7e 69bf c705 19bf
00000060: 53db 2dbf 13de b9bf 6b84 64bf 115c 59bf
00000070: 8548 b6bf 743a 43bf ff31 86be c34e 71bf
00000080: e2dd 9dbe 19da 63bf c31a 7abf 6ab7 03bf
00000090: 2a6d 71bf 584f 48bf 2aab 80bf fa02 7abf
000000a0: eba3 60bf 8744 82bf 996f b6bf 58ec 85be
000000b0: 9cce 37bf 5e44 27bf 6a22 9abf f931 50bf
000000c0: b6a9 30bf bb3c 49bf 0c61 35bf d71c 2fbf
000000d0: 2037 b1bf 9247 babf 1225 86bf be45 32bf
000000e0: 8f8b f8be 194e babf 4ad7 86bf 0a38 84bf
000000f0: 650c 05c0 c0ef 4fbf 1624 33bf e8f8 97bf
00000100: b596 89bd 2ff6 2c3f 19d7 c83e c7b5 f33e
00000110: 5054 3bb9 95d5 a33e 3a91 bc3e 4714 71bd
00000120: e92c 9d3e bee9 b63e 57b8 113f 6492 193d
00000130: cbe6 073f b482 6fbd d98f ac3e 847c aa3e
00000140: 6648 aa3e 962f 0d3e d8e7 c33e 3573 a43e
00000150: 14ef 593d a5aa 80be fbc7 eb3e f670 393f
00000160: aa39 1e3e 797c 933e ef1d c73d 2650 993e
00000170: c167 18bf 6770 013f d207 053f a370 173f
00000180: 4610 50bd 79d2 293e 9206 0ebd 291c 8a3d
00000190: 843d 26bd 65fb c7bd 2f08 973d 166d d73d
000001a0: a8cc 4e3d 5b0d d43c 233d 33be 4860 e93d
000001b0: 2463 d13c a913 363d 300c 0d3d 2140 32bd
000001c0: 803e 34bd 20e0 2fbd 0ced 1fbd e0e1 63bc
000001d0: 3a4e 6a3d 112c 88bc c443 043d bffd 86bd
000001e0: 6482 9b3c e0ac 8c3a 019a 273e 3863 16bc
000001f0: bc00 95bd da41 c93b 9f30 7a3d a6ac 25be
00000200: 0000 0000 0000 0000 0000 0000 0000 0000
00000210: 0000 0000 0000 0000 0000 0000 0000 0000
00000220: 0000 0000 0000 0000 0000 0000 0000 0000
00000230: 0000 0000 0000 0000 0000 0000 0000 0000
00000240: 0000 0000 0000 0000 0000 0000 0000 0000
00000250: 0000 0000 0000 0000 0000 0000 0000 0000
00000260: 0000 0000 0000 0000 0000 0000 0000 0000
00000270: 0000 0000 0000 0000 0000 0000 0000 0000
00000280: 0000 0000 0000 0000 0000 0000 0000 0000
00000290: 0000 0000 0000 0000 0000 0000 0000 0000
000002a0: 0000 0000 0000 0000 0000 0000 0000 0000
000002b0: 0000 0000 0000 0000 0000 0000 0000 0000
000002c0: 0000 0000 0000 0000 0000 0000 0000 0000
000002d0: 0000 0000 0000 0000 0000 0000 0000 0000
000002e0: 0000 0000 0000 0000 0000 0000 0000 0000
000002f0: 0000 0000 0000 0000 0000 0000 0000 0000
00000300: 0000 0000 0000 0000 0000 0000 0000 0000
00000310: 0000 0000 0000 0000 0000 0000 0000 0000
00000320: 0000 0000 0000 0000 0000 0000 0000 0000
00000330: 0000 0000 0000 0000 0000 0000 0000 0000
00000340: 0000 0000 0000 0000 0000 0000 0000 0000
00000350: 0000 0000 0000 0000 0000 0000 0000 0000
00000360: 0000 0000 0000 0000 0000 0000 0000 0000
00000370: 0000 0000 0000 0000 0000 0000 0000 0000
00000380: 0000 0000 0000 0000 0000 0000 0000 0000
00000390: 0000 0000 0000 0000 0000 0000 0000 0000
000003a0: 0000 0000 0000 0000 0000 0000 0000 0000
000003b0: 0000 0000 0000 0000 0000 0000 0000 0000
000003c0: 0000 0000 0000 0000 0000 0000 0000 0000
000003d0: 0000 0000 0000 0000 0000 0000 0000 0000
000003e0: 0000 0000 0000 0000 0000 0000 0000 0000
000003f0: 0000 0000 0000 0000 0000 0000 0000 0000
