examples/ML/onnx/models/model.onnx (onnx, 68723 bytes, 4 tensors)

dense.weight f4 [1, 2]
0	0x3f05c07b	0.52246827
1	0xbecdca65	-0.40193477

onnx::LSTM_117 f4 [1, 8, 1]
0	0xbe1a5d80	-0.1507473
1	0x3e7d5353	0.24738817
2	0xbec04800	-0.37554932
3	0x3dbd1cdc	0.0923402
4	0x3ea7f55a	0.32804376
5	0x3f0dc3b5	0.5537675
6	0x3ebad82f	0.3649306
7	0xbe088f56	-0.13335928

onnx::LSTM_118 f4 [1, 8, 2]
0	0xbe87b932	-0.2650848
1	0x3ec1e87f	0.37872693
2	0x3ee811c3	0.4532605
3	0x3f0fd0b2	0.5617782
4	0xbf2ecc78	-0.68280745
5	0xbe9fba73	-0.31196937
6	0x3ef402ff	0.47658536
7	0x3e5dee2c	0.21672887
8	0xbef54fd5	-0.4791247
9	0x3e332599	0.17494811
10	0xbedf6a06	-0.43635577
11	0x3e911f94	0.28344405
12	0x3e3dda96	0.18540415
13	0xbe80ed48	-0.2518103
14	0xbded1272	-0.11575784
15	0xbd17123c	-0.036882624

onnx::LSTM_119 f4 [1, 16]
0	0x3f09259c	0.5357301
1	0xbf222db4	-0.6335099
2	0xbeee1c40	-0.46505928
3	0x3e4f5506	0.20247278
4	0xbea2ecc2	-0.31821257
5	0xbe7f503e	-0.24932954
6	0x3de1951a	0.11014767
7	0xbef7668c	-0.48320425
8	0x3ec92fbf	0.3929424
9	0xbdfd698e	-0.123736486
10	0xbe0f6ff7	-0.14007555
11	0xbe808646	-0.25102443
12	0x3f1fd064	0.62427354
13	0x3f0187b9	0.5059772
14	0x3dcdf275	0.10056011
15	0x3c3efbd6	0.011656722
