examples/Performance/onnx/topline_Timing/models/topline.onnx (onnx, 42774 bytes, 4 tensors)

denseIn.weight f4 [320, 16]
000000 0c 36 6a be c0 16 e0 bb da 13 4b be 34 91 1b 3e
       -0.2287218 -0.0068386495 -0.19831792 0.1519211
000010 e8 20 6e 3d 1a c2 68 3e 3e 5f 2d be d6 e6 4d 3e
       0.05813685 0.22730294 -0.16930863 0.20107588
000020 d8 06 ef 3d 8c 83 c9 bd d4 6a 70 3e c0 48 3f 3d
       0.11671227 -0.09839544 0.23478252 0.04670024
000030 ba 22 24 3e 8c 0b af 3d 36 73 30 be 08 fa a1 3d
       0.16028872 0.08547124 -0.1723145 0.07909018
000040 68 cf 01 bd 4a e6 0d be e2 ce 3b 3e cc 06 f1 3d
       -0.03169194 -0.1385738 0.18340638 0.117688745
000050 34 d1 01 3e 70 6b a1 3d 80 3b b2 3d 3c 4d f9 bd
       0.12677461 0.0788182 0.08702755 -0.121729344
000060 64 00 f1 bd 20 fb b1 3d 7c c0 6d 3e 78 e1 1c 3d
       -0.11767653 0.086904764 0.23217958 0.03830096
000070 2a 35 6e 3e 74 27 31 be a8 f7 a1 bd 90 f0 4b 3e
       0.23262468 -0.17300206 -0.07908565 0.19915986
000080 00 f0 e5 3c f4 17 10 3e b4 dc d3 3d 98 e4 be bd
       0.028068542 0.14071637 0.1034483 -0.093209445
000090 60 19 5f 3d e0 c4 40 bc 78 a3 42 be 00 bc 1e 3a
       0.05446756 -0.011765689 -0.19007671 0.0006055236
0000a0 20 3b 8f bc 40 2a 13 be 20 a3 f3 bd 78 b0 67 3d
       -0.017484248 -0.14371586 -0.11896348 0.056564778
0000b0 8c 06 49 be 60 3d 43 3d 9a d8 47 be ae a0 27 3e
       -0.19631404 0.047665954 -0.1951622 0.16369888
0000c0 b0 75 f0 bc 28 30 1a be 00 24 f9 bc a8 da 72 3d
       -0.029352993 -0.15057433 -0.030412674 0.059290558
0000d0 88 9d ce bd 08 cb 1d be 28 c3 8c 3d d6 48 28 be
       -0.100886405 -0.15409482 0.068731606 -0.16434035
0000e0 10 b3 ec 3c 70 b6 0b bd 7e 52 6b 3e 84 e9 7d 3e
       0.028893977 -0.034109533 0.22980687 0.2479611
0000f0 40 3e 9b bd dc 60 a2 3d 0e a9 4b be 14 06 9b 3d
       -0.075802326 0.07928631 -0.19888708 0.07569519
000100 a2 1c 08 3e d8 20 9f bd 9c 72 19 be ae 58 0f 3e
       0.13292173 -0.07769936 -0.14985126 0.13998672
000110 c0 78 0d be a8 39 a5 bd 16 4a 67 be 92 83 30 be
       -0.13815594 -0.08067638 -0.22586855 -0.1723769
000120 a0 b1 ed 3c 98 5f d0 3d 40 71 3e bc 6e 06 0d 3e
       0.029015362 0.10174483 -0.011623681 0.13771984
000130 f0 a3 77 be aa 4e 03 3e 80 cd 98 3d 6c a4 ab bd
       -0.24183631 0.12822977 0.07461071 -0.0838097
000140 f8 bf 99 bd a8 e1 0b 3e 78 fa fa 3d de c5 6d 3e
       -0.07507318 0.136603 0.122548044 0.23220012
000150 bc 07 c6 3d f4 ab e6 bd 54 f8 d1 3d 42 35 44 3e
       0.09669444 -0.11263266 0.10252443 0.19160941
000160 30 4a 51 bd 30 2b ba bc 48 b6 01 bd 12 b3 58 be
       -0.05109614 -0.022725672 -0.031667978 -0.2116206
000170 d0 66 14 3e 26 74 54 be 20 e9 85 3d c2 21 40 3e
       0.14492345 -0.20747432 0.06538606 0.18762878
000180 98 fb 4b be 90 5c 3f 3e 80 9f 9e bd d0 00 a9 3c
       -0.19920194 0.18687654 -0.07745266 0.02063027
000190 22 8d 7a be 40 90 cf bb 00 2e f3 bc d0 6e 7a 3d
       -0.244679 -0.0063343346 -0.02968502 0.061140835
0001a0 20 26 52 3c 80 ff 64 be c4 51 90 3d 18 78 33 be
       0.0128264725 -0.2236309 0.070468456 -0.17526281
0001b0 e0 b4 14 3c 40 64 7b 3d b8 f5 36 3d 28 4f 38 be
       0.009076327 0.061374903 0.04466793 -0.17998946
0001c0 24 64 de 3d 64 31 ed 3d 7a 18 5c be 20 ef ec bc
       0.10858944 0.11581686 -0.21493712 -0.028922617
0001d0 08 f4 ec 3d ac 46 95 bd 58 31 96 bd 8e 2c 12 3e
       0.11569983 -0.0728887 -0.0733363 0.14274809
0001e0 ba ef 1e 3e 4c 6e 1e be b6 ee 4b 3e 98 16 2f bd
       0.15521136 -0.15471762 0.1991528 -0.042746156
0001f0 06 e2 45 3e 38 d5 bd 3d ea 2f 0a 3e 4e f0 04 3e
       0.19324502 0.09269184 0.1349484 0.12982294
000200 bc 79 3e 3e e0 52 9b 3c f8 31 9d 3d 4a 28 45 3e
       0.18601125 0.018960416 0.076755464 0.1925365
000210 50 ca 15 bd 5c e8 48 3e ee 5d 0d 3e c0 a6 fc 3b
       -0.036569893 0.19619888 0.13805363 0.007710308
000220 00 fa fd bc 58 34 00 bd f8 85 72 3e 88 17 4d 3e
       -0.031002998 -0.03129992 0.23683918 0.20028508
000230 e0 3c 2e 3e a0 40 70 be 7a 4f 19 3e 70 66 6f be
       0.1701541 -0.23462152 0.14971724 -0.2337892
000240 7a 9b 25 be 10 c3 55 3e 78 ca 2d 3d 40 49 d6 bc
       -0.16172591 0.20875192 0.042429417 -0.026157975
000250 3a 32 47 3e 28 25 14 be 14 52 9c 3d 78 03 05 3e
       0.19452754 -0.14467299 0.07632843 0.12989604
000260 44 f3 ae bd 00 a8 05 3b dc 24 c4 3d 16 8e 0d 3e
       -0.08542493 0.0020394325 0.09577343 0.13823733
000270 ec 8f e5 3d d4 43 09 be 34 34 3a be fa db 4f be
       0.112090915 -0.1340478 -0.18183976 -0.20298758
000280 10 06 fd 3c 34 4d 74 3e ee d2 6a 3e f8 85 64 3d
       0.03088668 0.23857576 0.22932026 0.055791825
000290 80 ca 8d 3d 80 f9 5c 3e 30 d7 75 be 30 2a 95 3c
       0.069233894 0.21579552 -0.24007869 0.018208593
0002a0 46 0e 12 3e 80 7f 6c be e6 99 2d be 6c 52 4a be
       0.14263257 -0.23095512 -0.16953239 -0.19758004
0002b0 ee 17 75 3e 42 e5 0c be b4 d7 48 3e c0 d8 28 be
       0.2393491 -0.1375933 0.19613534 -0.16488934
0002c0 2a ca 15 be e2 49 03 3e ae 92 43 be 64 fa e9 bd
       -0.146279 0.12821153 -0.19098923 -0.11424711
0002d0 28 31 8f 3d 60 77 dc bd fc 5f 18 3e c0 c9 71 be
       0.06991798 -0.107649565 0.14880365 -0.23612118
0002e0 44 56 c4 3d e0 c5 eb 3d da ca 7c 3e 8e 3c 35 be
       0.09586766 0.11512351 0.24686757 -0.17698881
0002f0 e4 56 f3 bd 20 70 42 bd 08 a4 a1 bd 12 bf 41 be
       -0.118818074 -0.047470212 -0.078926146 -0.18920544
000300 20 86 7b bd ba 43 4a be 68 59 a3 3d 78 dc b4 3d
       -0.06140721 -0.19752398 0.07976037 0.088311136
000310 00 37 f2 3c 44 15 c3 bd a8 3d 4b bd 96 51 7f be
       0.029567242 -0.095255405 -0.049619347 -0.24933466
000320 80 2e 3f 3e dc ce 33 3e e6 29 3b 3e a8 51 f0 3d
       0.18670082 0.1755938 0.18277702 0.11734325
000330 18 15 2a 3e 16 21 3c be 32 2a 6e be de 78 66 3e
       0.16609609 -0.18371996 -0.23258284 0.22507045
000340 2c 18 2e 3e 34 be 8f 3d 90 c6 6a be f0 1c 08 3e
       0.17001408 0.070187 -0.22927308 0.13292289
000350 78 4a df 3d 00 4e 73 3d 84 93 b6 bd d4 89 ea 3d
       0.10902876 0.05940056 -0.08914855 0.1145207
000360 c0 41 f9 3b 28 8c 92 bd 60 b1 0f 3e 9c 01 86 3d
       0.007606715 -0.07155639 0.14032507 0.06543276
000370 e2 3b 2b be 96 ba 5f 3e a4 79 09 3e be e2 7b be
       -0.16722062 0.2184852 0.13425308 -0.24598214
000380 20 81 eb bd de c0 1d be 24 6c d9 bd 0e f4 33 be
       -0.11499238 -0.15405604 -0.10616329 -0.17573568
000390 38 f5 0d be 68 2c e5 bd 20 8c 54 3e 1c ff 94 bd
       -0.13863075 -0.111901104 0.20756578 -0.07275221
0003a0 ec 16 6e 3e fa b3 3e 3e 34 f4 fe bd f0 26 a2 3c
       0.23250932 0.18623343 -0.12448922 0.019793957
0003b0 d2 16 09 3e 94 37 92 bd 48 23 01 bd 40 c7 10 be
       0.13387612 -0.07139507 -0.031527787 -0.14138508
0003c0 34 6b 9e 3d e8 9c 42 3e 64 9d e7 3d 50 26 29 be
       0.07735291 0.19005167 0.11309317 -0.16518521
0003d0 90 ad 2a 3d 88 2d 14 3d d6 9d 44 3e ea 97 71 3e
       0.04166943 0.036176234 0.19200835 0.23593107
0003e0 7c 29 ac 3d 96 8c 52 be d6 db 7f be 50 14 7b bd
       0.0840635 -0.20561442 -0.24986205 -0.06129867
0003f0 e4 a6 65 3e 48 b1 46 3d 46 dd 2c be ac 16 c3 3d
       0.22426945 0.048508912 -0.16881284 0.09525809

denseIn.bias f4 [320]
000000 f4 97 89 bd d8 80 a6 3d 16 70 28 3e b8 f0 5f 3e
       -0.06718436 0.08130044 0.16449007 0.2186917
000010 20 78 09 3c 80 8c b9 bb 52 85 25 3e 28 4b 45 be
       0.008390456 -0.005662501 0.16164139 -0.19266951
000020 4c 92 9d 3d b8 ec c3 bd 00 89 e1 3c 44 33 44 3e
       0.076939195 -0.09566635 0.027531147 0.19160181
000030 88 79 27 be 00 d8 f3 3a 7e 4e 08 3e c4 c5 0c be
       -0.16354954 0.0018603802 0.13311192 -0.13747317
000040 80 47 c3 bc 34 f9 4d be 1c cd b2 3d 58 30 09 bd
       -0.023837805 -0.20114595 0.08730528 -0.03349337
000050 b8 50 73 3e b8 07 3c bd 6c 44 74 3e 10 2a 42 3d
       0.2376126 -0.0459058 0.23854226 0.047403395
000060 7a 75 34 3e 3c 50 66 3e a6 ca 4a be d0 30 86 3c
       0.17622939 0.22491544 -0.19803867 0.016380697
000070 c0 b0 18 3e c0 ef 24 bc 56 da 60 be b0 82 36 bd
       0.14911175 -0.0100669265 -0.21958289 -0.044558227
000080 2c 3d 91 bd 50 ae a2 3c f8 ff a4 3d ac 21 c3 bd
       -0.07091746 0.01985851 0.08056635 -0.09527907
000090 7a 8e 1f be 36 a2 52 be c0 39 9a 3b c2 fe 5f 3e
       -0.15581694 -0.20569691 0.0047065914 0.21874526
0000a0 60 4e 54 3e fc 1f 06 3e a0 23 d7 3c a8 dd 32 3d
       0.20733023 0.13098139 0.026262105 0.04366842
0000b0 b8 dd 54 be 30 8d 4f 3d bc 00 43 3e 1c 75 a5 bd
       -0.20787704 0.050671756 0.19043249 -0.080789775
0000c0 04 03 31 be e8 8a 09 3d 04 94 ca bd a0 36 30 bc
       -0.17286307 0.033579737 -0.09891513 -0.010755211
0000d0 80 15 29 bd e0 c3 5b 3d fc 17 74 be 8c e1 ab bd
       -0.04128027 0.053653598 -0.23837274 -0.08392629
0000e0 98 7c e1 3d 50 0c f0 3c 40 46 b6 bc 40 52 09 bc
       0.110100925 0.029302746 -0.022250295 -0.008381426
0000f0 c2 12 1d 3e 08 9a 26 3e 20 dc e6 3c 00 9c 04 3e
       0.15339187 0.16269696 0.028181136 0.12950134
000100 ec 6b d5 bd a0 bc 19 be 4e 9d 59 be 96 9f 3a be
       -0.10420975 -0.15013361 -0.21251413 -0.1822494
000110 78 76 6b 3d 3c cf 7f 3e 40 30 f0 bb 0c fd 2d 3e
       0.057486027 0.24981397 -0.0073299706 0.16991061
000120 fc b5 10 be 82 5e 00 3e 58 50 f5 bd 1a a3 13 be
       -0.14131922 0.12536052 -0.11978215 -0.14417687
000130 b8 5c 22 be f8 de 2b be 14 8d c2 3d ee 8f 23 be
       -0.15855682 -0.16784275 0.09499565 -0.15972874
000140 2c 3f fb 3d 98 1c d1 bd 7c da 40 3e c0 3a 8b 3b
       0.122679085 -0.10210532 0.18833345 0.004248947
000150 80 5a ab bb 50 8c 69 be 30 42 e5 bd 70 fe 5f 3e
       -0.0052292943 -0.22807431 -0.11194265 0.21874404
000160 9a 4d 2f be 5e 6f 5b 3e 2e 3b 2a 3e 9e 50 75 be
       -0.17119446 0.21429202 0.16624138 -0.23956534
000170 84 19 28 be 80 d4 38 3b 00 bf 16 bc 08 43 4a bd
       -0.16415983 0.0028202832 -0.009200811 -0.049380332
000180 9e 46 1c be aa 17 41 3e 30 69 79 bd a8 a0 5e be
       -0.15261313 0.18856683 -0.06089133 -0.21740973
000190 a4 9f a5 bd b4 84 aa 3d 40 3c d0 bd 44 4f 4c 3e
       -0.0808709 0.08326092 -0.10167742 0.19952112
0001a0 e4 1c b4 bd 80 04 2f 3b 0c 1d 55 be e0 5d f2 3c
       -0.08794573 0.0026705563 -0.20811862 0.029585779
0001b0 30 d0 d1 bc 50 64 4f 3d c2 e1 7c be 90 3c 38 bd
       -0.025611967 0.050632775 -0.24695495 -0.044979632
0001c0 1a df 40 be 42 fd 24 3e 44 dd 3d be 58 cd 55 3e
       -0.18835106 0.16112235 -0.18541437 0.20879114
0001d0 02 16 78 be fa f1 0b 3e 70 a4 6c be 78 49 94 bd
       -0.24227145 0.13666525 -0.23109603 -0.072405756
0001e0 34 c7 fe bd 22 70 52 be 2c e6 d4 3d c8 9d a0 bd
       -0.12440339 -0.20550588 0.10395464 -0.078425944
0001f0 18 65 c7 bd 58 f6 69 be 08 bf f2 bd 56 97 59 be
       -0.09736079 -0.22847879 -0.118528426 -0.21249136
000200 24 80 61 3e 3c 1c c4 3d 00 f0 87 ba e0 9a 40 3d
       0.22021538 0.09575698 -0.0010371208 0.0470227
000210 86 98 5f be b8 62 45 be c8 32 d1 bd 30 a7 33 be
       -0.21835527 -0.1927594 -0.10214764 -0.17544246
000220 30 41 f7 bd 4c a4 75 3e f2 ca 3c be a0 7e 7f 3e
       -0.120729804 0.23988456 -0.18436792 0.24950647
000230 a0 75 be 3c dc 56 ed bd 64 9e 87 bd 4a 88 51 3e
       0.023249447 -0.11588833 -0.066220075 0.20462146
000240 1c 12 e5 bd dc 26 97 3d e8 31 07 3d 20 4f 92 3d
       -0.11185095 0.07380459 0.03300658 0.07143998
000250 60 79 09 3e 8e 86 3d be 90 1b 7c 3e 62 4a 49 be
       0.13425207 -0.1850836 0.2461989 -0.19657281
000260 ee 2d 7b be de 91 2a 3e b4 71 d8 bd 90 2d 47 3d
       -0.2452924 0.16657206 -0.10568562 0.048627436
000270 14 19 5c 3e b4 55 ed 3d c0 2f bf 3c 80 51 e1 3b
       0.21493942 0.11588612 0.023338199 0.0068761706
000280 80 82 f7 3d e0 91 6b 3e f2 f8 34 3e 00 a9 02 be
       0.12085438 0.23004866 0.1767309 -0.12759781
000290 a4 4c 37 3e 52 93 56 be fa 5f 22 3e 24 ab 1e be
       0.1790033 -0.20954636 0.15856925 -0.15494972
0002a0 c0 b9 83 3b 8e 61 5a be 4c fa f4 bd 2c 4f 6a 3e
       0.004019946 -0.21326277 -0.11961803 0.22881764
0002b0 42 ff 68 be 20 8e 39 3e 00 ba 1d bc 48 84 8e 3d
       -0.22753623 0.18120623 -0.009626865 0.069588244
0002c0 e4 fb 5c 3e 6c f7 35 be d0 a8 26 bd f0 05 6b be
       0.21580464 -0.17770165 -0.040688336 -0.22951484
0002d0 24 86 e5 3d 84 24 a3 3d 62 63 3f be b4 49 1f 3e
       0.11207226 0.07965949 -0.18690255 0.1555546
0002e0 f0 5e 5a 3e 24 4d 2b 3e 70 47 e9 3d 3c ee 59 be
       0.21325278 0.16728646 0.11390579 -0.21282285
0002f0 b4 01 70 3e 80 bf 5f 3e ec 69 46 be 7e 4c 04 be
       0.2343815 0.21850395 -0.19376343 -0.12919804
000300 38 56 8c 3d 1c 52 2c 3e 60 78 6f 3d 10 f9 73 bd
       0.068523824 0.16828197 0.058464408 -0.059563696
000310 34 4f ee 3d 24 0c 0c 3e 00 e9 65 bb a2 98 79 be
       0.116362005 0.13676506 -0.0035081506 -0.24374631
000320 34 fc 79 be a6 3f 15 be 30 7a 40 bd 18 d7 6a 3e
       -0.24412614 -0.14575061 -0.046991527 0.22933614
000330 18 1c 4f 3e d0 17 a4 bd 04 1f 1e 3e c0 3e c9 bd
       0.2022556 -0.080123544 0.15441519 -0.09826422
000340 58 54 18 be 10 38 a5 3c 2a c8 48 be e8 cf c4 3d
       -0.14875925 0.020168334 -0.19607607 0.096099675
000350 b4 b8 d5 3d f8 ad 33 bd 40 4f b2 3b 7c 44 45 be
       0.1043562 -0.04386708 0.0054415762 -0.19264406
000360 ca 76 1d be 60 41 44 bc 40 e4 e1 bd d0 87 d5 3c
       -0.15377346 -0.011978477 -0.11029863 0.026065737
000370 44 b9 81 3d 6c c8 85 3d f0 43 7a be cc 06 e9 3d
       0.06334165 0.06532368 -0.24439979 0.113782495
000380 f6 2a 7b be e0 8b 18 3e 60 f7 a4 bd 70 a8 0b be
       -0.24528107 0.14897108 -0.080549955 -0.13638473
000390 10 06 96 3c 8a cb 34 be 82 da 21 3e dc 81 82 3d
       0.018313438 -0.17655769 0.1580601 0.06372425
0003a0 00 4c 4b bd 54 22 53 3e 9e fe 04 3e 4c 27 7d 3e
       -0.049633026 0.20618564 0.12987754 0.24722022
0003b0 30 3a 4e bd 8c 64 12 3e fa 7c 2b 3e 5c 9d c1 3d
       -0.05034846 0.14296168 0.16746894 0.09453842
0003c0 a8 4f 49 3e 48 59 16 be 08 63 7e 3e 1a 76 2e be
       0.19659293 -0.14682496 0.24842465 -0.1703724
0003d0 9e c0 7a be 64 86 fe 3d 38 ae 81 3d f8 c5 03 3d
       -0.2448754 0.12427977 0.06332058 0.03217122
0003e0 c8 e1 13 be 6e e9 6c 3e 48 90 74 3d 1e 79 69 be
       -0.14441597 0.23135921 0.05970791 -0.22800109
0003f0 8c bd 13 3e 4c e7 f1 3d 80 f3 f3 3b fa 4e 55 be
       0.14427775 0.118116945 0.007444799 -0.20830908

denseOut.weight f4 [16, 320]
000000 e4 7f 83 3c 20 0c 4c bd 59 a4 55 bd 50 56 ee bc
       0.016052194 -0.04981625 -0.052158687 -0.029093891
000010 7f fa e5 3b 6d cd 0b 3d 5a e7 5f 3d ec 38 8a 3c
       0.007018387 0.034131456 0.054663993 0.016872846
000020 a4 69 83 bc 36 6e 0d 3d 86 5d 33 bd dd ce 2f 3d
       -0.016041584 0.034528933 -0.043790363 0.04292189
000030 79 eb 03 bd a9 e1 0d 3d 1d ef 2c bd 86 15 61 bd
       -0.032206986 0.034639034 -0.042220224 -0.054952167
000040 80 c7 09 bd 2f 76 4e bd 9e 19 ed ba 1e 74 0f bc
       -0.033637524 -0.050405677 -0.00180893 -0.008755712
000050 5b cd 89 3c 60 de 64 bd 3f f2 e4 3a 49 8a 28 bd
       0.016821554 -0.055876136 0.0017467214 -0.041147504
000060 2e 2f 2e bd f1 a8 3a bc 90 9a ea bc 19 d9 49 3d
       -0.042525463 -0.011392818 -0.028638154 0.049279306
000070 71 91 21 bb 97 5e 5f 3d fc 1e 5e 3d 10 d2 11 bd
       -0.002465334 0.054533567 0.054228768 -0.03560072
000080 2c 69 18 bd 88 56 34 3d 49 2a 88 bb 13 ff 0a bd
       -0.037209675 0.044027835 -0.0041554314 -0.033934664
000090 36 b8 8a bc cd 76 0e 3d 15 a8 46 bd 72 a8 30 bc
       -0.016933542 0.034781266 -0.04850014 -0.010782348
0000a0 29 d3 d8 bc 37 ae 41 bd 04 80 89 bb 05 11 1c 3d
       -0.026467877 -0.047285285 -0.004196169 0.03810217
0000b0 42 fe b8 bc b1 90 5f bd 49 7e 08 3d 21 bf 37 3d
       -0.022582177 -0.054581348 0.03332356 0.04486001
0000c0 d6 2e 1c bd 48 7f 4e 3d 69 cd 33 bd 43 f4 2b bd
       -0.038130604 0.050414354 -0.043897066 -0.041980993
0000d0 3c a1 4f bd 74 81 37 3d 3e a1 b4 bc bb 74 25 3d
       -0.050690874 0.04480119 -0.022049543 0.040394526
0000e0 26 14 32 bd 0b 61 88 3c b7 70 45 3d 81 18 ef 3c
       -0.043476246 0.016647836 0.048203196 0.029186489
0000f0 59 2a 67 bc 83 45 4e 3d 32 ed 76 3a 6a 68 ff bc
       -0.014109218 0.05035926 0.00094195 -0.031177718
000100 b7 11 22 3d 6f 5e 91 3c 38 e8 0b bc 78 bf ab 3c
       0.039567675 0.017745225 -0.008539252 0.020965323
000110 0a de d5 3c 0b 3e 56 bd c3 2c dd bb f7 23 11 bd
       0.026106853 -0.052305263 -0.006749721 -0.03543469
000120 71 e3 f8 3c 60 c1 2a 3d ce b6 56 3d 35 7f 92 3c
       0.03038189 0.041688323 0.05242043 0.017882923
000130 0a 23 1a bd 31 45 3f bc 3f d6 57 bb f0 70 cf 3c
       -0.037631072 -0.011674211 -0.0032934097 0.025322407
000140 69 2f 14 3d c4 d5 b6 3c e2 9c 07 3c 8f 0a 42 bd
       0.036178026 0.022318728 0.00827715 -0.04737335
000150 ca 48 84 3c da 62 b2 3c 08 13 44 bc 88 3c 23 bc
       0.01614799 0.021775652 -0.011967428 -0.009963162
000160 0c 93 9e 3c f8 13 cd 3a 54 6a 38 3b d0 a7 41 3d
       0.019357227 0.001564621 0.0028139548 0.04727918
000170 51 1f 10 bd 5b e9 f9 3c f6 92 5b 3d 24 fe 46 bd
       -0.035186116 0.03050678 0.05360695 -0.04858221
000180 8c a9 72 3c 73 d9 60 bc e5 fb 9a bb e4 fa ab bc
       0.014810931 -0.013723719 -0.004729735 -0.020993657
000190 2c de 27 3d cd 6b d3 3b c0 f4 a0 bb fa 3d 34 bd
       0.040983364 0.00645206 -0.004911989 -0.044004418
0001a0 7c e5 ad bc f8 d1 62 bd a3 8b 87 3b dc 90 55 bd
       -0.02122759 -0.055376023 0.004136519 -0.0521401
0001b0 2d 2b 5d 3d aa 94 8e 3c 3f 32 b2 3b 2f 51 6d bc
       0.053996254 0.017404873 0.0054381187 -0.014484688
0001c0 e5 49 60 bc b0 3b dd 3b 75 b4 42 3d a3 9b ab 3b
       -0.013689493 0.0067515 0.04753538 0.005237059
0001d0 21 7c 08 bb 28 4c 3a 3d 0a b8 1e ba 32 61 36 bd
       -0.002082594 0.045482785 -0.00060546456 -0.044526286
0001e0 eb 2d 03 bd 1e 11 cd 3c 1d f8 f1 3b db 8f 15 3d
       -0.032026213 0.025032576 0.0073843137 0.036514144
0001f0 45 af 18 bd 06 82 25 bd d9 8a bf 3c f5 4e 88 3c
       -0.037276525 -0.040407203 0.023381637 0.016639212
000200 18 4d ef 3c 45 45 ad bb a7 d6 ee 3c f0 83 f9 bc
       0.029211566 -0.0052877986 0.029155089 -0.03045842
000210 cc b1 22 bd 25 a1 2c bd 2d c9 24 3d 46 d6 93 bc
       -0.03972034 -0.042145867 0.04023092 -0.01804651
000220 12 3e 10 bd 82 ff 1e bd 35 98 2c bd 4b 92 91 3c
       -0.035215445 -0.03881789 -0.042137343 0.017769953
000230 1f 0a c0 bc 39 de a8 3c 82 20 1e bd 7d 73 1b 3d
       -0.023442326 0.020613777 -0.03860522 0.037951935
000240 9f 32 9a bc 88 c9 10 3d db a2 10 bd d8 1e 11 bd
       -0.018822966 0.035348445 -0.03531156 -0.035429806
000250 99 3f 0e 3c 9c c8 27 3d 23 bd f0 bc d3 9c 51 3b
       0.008682155 0.0409628 -0.029387062 0.0031984344
000260 cf 44 16 bc b7 fc 2a 3d 11 7c 20 3d dd 3b 56 bd
       -0.009171679 0.041744914 0.03918082 -0.052303184
000270 2a 82 88 3c 0b 79 c1 3c c3 60 0a bd 61 0f 5e 3d
       0.01666363 0.023617288 -0.033783685 0.054213885
000280 19 22 36 3c f9 dd a0 bc 00 d8 44 3d fd c7 52 3d
       0.011116528 -0.019637095 0.048057556 0.051460255
000290 9d 2f 05 bd d8 f1 19 bd 7a 86 0d bd e0 8b 97 bc
       -0.03251611 -0.037584156 -0.034552075 -0.018499315
0002a0 5d 98 a2 3c f8 56 56 bd 45 4a a2 bc 3b da 64 3d
       0.019848043 -0.052329034 -0.019810805 0.055872183
0002b0 5b aa 71 3c bc 09 38 bd 18 a3 4b bd 95 17 2b bd
       0.014750089 -0.04493116 -0.049716085 -0.041770536
0002c0 a4 0d 09 bc 23 41 27 bd 16 a3 4a bd d1 e1 19 bd
       -0.008365069 -0.040833604 -0.049471937 -0.03756887
0002d0 da 87 00 bd c3 b3 a6 3c b2 86 2b 3d 14 87 23 3d
       -0.03137956 0.020349389 0.041876502 0.039923742
0002e0 dd bf 3b bc 4a 29 2f bd b2 60 02 3d 3b 47 4c 3c
       -0.011459318 -0.042763986 0.031830497 0.012468155
0002f0 e0 5a 51 bd 28 94 60 bc 23 2c c8 3c 38 1c df 3c
       -0.051112056 -0.013707198 0.024435109 0.027235135
000300 7d 11 c1 bc d3 85 2a bd 28 25 97 3c 5e 8f 59 bd
       -0.02356791 -0.04163153 0.018450335 -0.05311524
000310 3a d1 40 3d 57 d9 ac bc 6b cb 0c bd 05 63 26 bd
       0.047074534 -0.02109973 -0.034373682 -0.040621776
000320 73 ef 5b bd f1 60 3c 3c ed 32 af 3c 4d b6 32 3d
       -0.053695153 0.011497722 0.021386588 0.043630887
000330 f0 f6 08 bd 02 65 f8 3c e1 05 cb bb bd 9d 01 3d
       -0.033438623 0.030321602 -0.006195769 0.03164457
000340 0c 93 01 bd be e8 32 3d 11 ee 2c bd a0 62 06 bd
       -0.031634375 0.04367899 -0.042219225 -0.0328089
000350 55 6d ed bc 38 c2 7d bc d3 18 67 3c f9 17 23 3c
       -0.028982798 -0.0154882 0.01410504 0.009954446
000360 38 30 c8 3c da f0 64 3d 82 c0 e3 bc fc 1d 70 bc
       0.024437055 0.055893756 -0.027801756 -0.014655586
000370 a5 cf bd 3c 23 b8 96 bc 20 31 63 bd 8e 46 ab 3c
       0.023170302 -0.01839835 -0.05546677 0.020907667
000380 32 78 61 3d 96 8c e1 3b e8 84 e6 bb 52 5f f8 3b
       0.055046268 0.006883214 -0.0070348866 0.0075797224
000390 3a 34 28 bd c0 28 59 bd 23 5a 30 3d ef f5 ea bc
       -0.041065432 -0.053017378 0.04305471 -0.028681723
0003a0 c1 d9 e0 ba 78 6d af 3c 24 ea 35 3a 08 89 17 3d
       -0.001715474 0.021414503 0.0006939492 0.036995918
0003b0 54 36 3e bd 62 49 a0 bc 8e 96 51 3d 70 f7 93 ba
       -0.04643853 -0.019566242 0.05116897 -0.0011288952
0003c0 f2 ff 51 bd 99 13 f7 bc 85 fb 01 bd 11 51 87 3c
       -0.05126948 -0.030160712 -0.03173401 0.016518148
0003d0 89 ae 3c 3d 5b f7 10 3d 78 fd 63 bd be cc 4b 3d
       0.046064887 0.035392147 -0.05566165 0.049755804
0003e0 f3 91 fe 3c 2e 43 fb 3a b7 c8 43 3d 74 77 64 3d
       0.031075453 0.0019169801 0.04779884 0.055777982
0003f0 d5 47 52 bd 3b 0c d6 3c 38 47 89 bc b1 66 40 3d
       -0.051338036 0.026128879 -0.016757593 0.046972934

denseOut.bias f4 [16]
000000 56 9b 2b 3d e0 ad e1 3c 4e ed 83 bc 04 59 71 bc
       0.041896187 0.02754873 -0.016104367 -0.014730696
000010 9f 23 fb 3c ae 68 a2 3c 26 d1 2f bd 6c ac ea bc
       0.030656634 0.019825306 -0.04292407 -0.02864667
000020 17 af 23 3d 75 a8 1e 3d da 74 92 3c 65 9c 17 bd
       0.0399619 0.038734872 0.017877985 -0.037014384
000030 b9 c9 82 3c f6 7a 51 bd 20 27 25 bc 62 72 21 bd
       0.01596533 -0.051142655 -0.010080129 -0.039415725
