examples/Performance/onnx/AutoGuitarAmp_Timing/models/AutoGuitarAmp.onnx (onnx, 10916 bytes, 4 tensors)

dense.weight f4 [1, 20]
0	0xbe294d27	-0.16533338
1	0x3e291393	0.16511373
2	0xbe1f031a	-0.15528527
3	0xbe5380ab	-0.20654552
4	0xbe5435ea	-0.20723692
5	0xbc0bb018	-0.008525871
6	0xbe064c89	-0.13115133
7	0xbe4a8c08	-0.1977998
8	0xbe34bb59	-0.17649592
9	0x3e33e6c5	0.175685
10	0x3d91c88c	0.071183294
11	0x3cb621e0	0.02223295
12	0xbe4c3c82	-0.19944957
13	0xbd209977	-0.039208855
14	0xbe47d813	-0.1951602
15	0x3d639bda	0.055568554
16	0x3dbf2dd3	0.09334912
17	0xbc33e3d2	-0.01097961
18	0x3e1ac770	0.15115142
19	0xbdd6199a	-0.10454102

onnx::LSTM_119 f4 [1, 80, 2]
0	0xbdaacda0	-0.08340001
1	0x3c3f2e62	0.011668773
2	0xbdbd71b7	-0.09250205
3	0xbdc0e5ad	-0.09418807
4	0x3c94b27c	0.018151514
5	0xbd303ddf	-0.043027755
6	0x3db6eae9	0.08931524
7	0x3dffafb8	0.124846876
8	0xbe1e33fc	-0.15449518
9	0xbdeb67d6	-0.114944145
10	0x3dbb0c87	0.09133249
11	0x3c455c11	0.012045876
12	0x3e4390df	0.19098233
13	0x3d3da3b8	0.046298712
14	0xbd7f4ebb	-0.062330943
15	0xbd20d869	-0.039268885
16	0xbddc9e94	-0.10772434
17	0xbe605a94	-0.21909553
18	0xbe1215f9	-0.14266194
19	0xbcc607af	-0.024173586
20	0x3df9ca75	0.12196819
21	0x3cf1c00b	0.029510519
22	0x3d223e8b	0.039610427
23	0xbd8a0b40	-0.06740427
24	0x3cbc2cbb	0.022970548
25	0x3e2a1c26	0.166123
26	0x3e37df72	0.17956331
27	0xbe62b885	-0.22140701
28	0xbe36df18	-0.17858541
29	0xbe12156f	-0.14265989
30	0x3db511fb	0.0884132
31	0xbae1a694	-0.0017215782
32	0x3d0bb7a4	0.03411068
33	0x3d31dfee	0.043426447
34	0xbdb30962	-0.08742024
35	0x3d4bf767	0.049796488
36	0xbd8562b3	-0.06512966
37	0xbe553e46	-0.20824537
38	0xbdab6330	-0.08368528
39	0xbd9f97ac	-0.07792601
40	0x3df88b62	0.1213596
41	0x3d96df56	0.07366817
42	0xbcfbebe4	-0.03075213
43	0xbdb4ab4e	-0.08821736
44	0xbb895d4d	-0.0041920305
45	0xbd5bb554	-0.053639725
46	0x3e3d1f68	0.18469012
47	0xbe07752c	-0.13228291
48	0xbc165852	-0.009176331
49	0xbc7a81fb	-0.015289779
50	0xbd800c53	-0.06252351
51	0x3e396296	0.18104014
52	0xbde34c2d	-0.11098514
53	0xbd8dcf99	-0.06924362
54	0x3d1769ca	0.036966123
55	0xbc004acf	-0.007830336
56	0x3e10ab54	0.14127856
57	0xbc2795a6	-0.01022855
58	0xbe40ea4d	-0.18839379
59	0xbe11657d	-0.14198871
60	0xbe282884	-0.16421705
61	0x3e22de28	0.15905058
62	0x3dc46812	0.09590162
63	0x3e5f4e9d	0.21807332
64	0xbd812228	-0.06305343
65	0xbe449ed7	-0.19201218
66	0xbe55a938	-0.20865333
67	0xbdd32964	-0.10310629
68	0xbb7b488b	-0.00383428
69	0x3c83b4d5	0.016077438
70	0xbe3006e8	-0.17190135
71	0xbd49b669	-0.049246226
72	0x3d93a4ff	0.07209205
73	0xbe0bce0d	-0.13652821
74	0x3d781c19	0.06057367
75	0x3dc007fb	0.09376522
76	0x3db5ee8b	0.08883389
77	0xbd326081	-0.043549065
78	0x3cb9d3c9	0.022683995
79	0x3e1e9b72	0.15488985
80	0xbe638e76	-0.22222313
81	0xbe54b9e9	-0.20774044
82	0xbe4ac073	-0.19799976
83	0x3dd28dd8	0.10280961
84	0x3ce8293c	0.028339975
85	0xbe1c2c52	-0.15251282
86	0x3ddc8397	0.10767286
87	0x3e416c84	0.18889052
88	0xbe188b57	-0.14896904
89	0xbe074eba	-0.13213626
90	0xbe26c85d	-0.1628737
91	0x3dd52310	0.10407078
92	0x3e44c224	0.19214684
93	0xbdf9f5b6	-0.12205069
94	0x3e568a48	0.20951188
95	0xbd486e61	-0.04893339
96	0x3ddc9541	0.107706554
97	0x3d88fa62	0.06688382
98	0x3e14ce89	0.14531912
99	0x3de8337a	0.113379434
100	0x3e455a76	0.1927279
101	0xbe1005e3	-0.14064746
102	0xbdc6b3b2	-0.09702243
103	0xbe3984de	-0.18117091
104	0x3e28eee0	0.16497374
105	0xbdeb67c0	-0.11494398
106	0xbd861a0b	-0.06547936
107	0xbdc49842	-0.095993534
108	0x3e17bdf5	0.14818557
109	0x3dff3d83	0.12462904
110	0x3d11356e	0.035451345
111	0xbdb0b029	-0.0862735
112	0x3e28eb35	0.16495974
113	0xbde25dde	-0.1105306
114	0xbe150aa8	-0.14554846
115	0x3e2ffc80	0.17186165
116	0x3e3c4479	0.18385495
117	0xbe035a18	-0.12827337
118	0xbe2dec47	-0.16984664
119	0xbe12ba64	-0.14328915
120	0x3c37320f	0.0111813685
121	0xbd8d0cb6	-0.0688719
122	0xbdc9fc1b	-0.098625384
123	0xbccb8352	-0.024842892
124	0xbe27edf2	-0.16399363
125	0xbd85c84a	-0.06532343
126	0xbe0c2d00	-0.13689041
127	0xbe29b419	-0.16572608
128	0xbcd6a1d6	-0.026200216
129	0xbdbb38f1	-0.0914172
130	0xbcbac472	-0.02279875
131	0x3d823575	0.06357852
132	0xbda54dda	-0.0807149
133	0xbc55659a	-0.013024712
134	0x3b93e2a5	0.004513102
135	0x3e5dd828	0.21664488
136	0x3e58d2dc	0.21174186
137	0xbe5c6c76	-0.2152575
138	0x3d9b4fb1	0.07583559
139	0xbde263c4	-0.11054185
140	0x3da9a0ca	0.08282621
141	0xbde66ca5	-0.11251191
142	0xbe43d33d	-0.1912355
143	0xbe15b1a4	-0.14618546
144	0xbc035128	-0.008014955
145	0xbe4ae473	-0.19813709
146	0xbde67638	-0.11253017
147	0xbe449ada	-0.19199696
148	0x3dede186	0.11615281
149	0x3e15a36a	0.14613119
150	0xbd360c45	-0.044445295
151	0xbc9c8f9e	-0.01911145
152	0x3e199703	0.14999013
153	0xbe2b4a39	-0.16727532
154	0xbdb264c1	-0.087106235
155	0xbe31e7d0	-0.17373586
156	0xb9276cf3	-0.00015966948
157	0x3e47b2fc	0.19501871
158	0xbe10148b	-0.14070337
159	0x3c2056b7	0.009786299

onnx::LSTM_120 f4 [1, 80, 20]
0	0x3e47c36f	0.19508146
1	0x3db24e3a	0.08706327
2	0xbcb4043e	-0.02197468
3	0xbe3c6962	-0.18399575
4	0xbe32268b	-0.17397515
5	0xbdd241ee	-0.10266481
6	0x3e2455ff	0.1604843
7	0xbe544d98	-0.20732725
8	0x3d9d43b4	0.07678929
9	0xbe5a7ca9	-0.21336617
10	0x3dccc1f2	0.0999793
11	0x3d69cc22	0.05707944
12	0x3cb29ccb	0.02180328
13	0x3d85dfe4	0.065368444
14	0x3e340580	0.17580223
15	0xbb86ce22	-0.0041139284
16	0xbe43eff5	-0.19134505
17	0xbe1fa171	-0.15588929
18	0x3db1d259	0.08682699
19	0xbe443c40	-0.19163609
20	0x39312709	0.00016894577
21	0x3e52ba2c	0.20578831
22	0x3e386089	0.18005575
23	0x3e5e6007	0.21716319
24	0x3e41e670	0.18935561
25	0x3e4b2964	0.19840008
26	0x3e54b8e1	0.2077365
27	0x3bef3dad	0.0073010535
28	0x3e64357b	0.22286026
29	0x3e06cdad	0.13164397
30	0xbe02ff8e	-0.12792799
31	0xbda6ee20	-0.081508875
32	0xbd1906d9	-0.037360046
33	0x3c8039c2	0.015652541
34	0xbde706de	-0.11280607
35	0x3d8d6f03	0.069059394
36	0xbcb90c8e	-0.022588994
37	0x3e3b1554	0.18269855
38	0x3e26eddf	0.16301678
39	0xbd7b66df	-0.061377402
40	0x3e589e25	0.21154077
41	0x3e0dbf7c	0.13842577
42	0xbcb5c53f	-0.02218878
43	0x3e203149	0.15643801
44	0xbe1b37ab	-0.15157954
45	0xbd73f32b	-0.059558075
46	0xbe5a0986	-0.21292695
47	0x3c4ad953	0.012380916
48	0xbdf93e0c	-0.121700376
49	0xbe296d4c	-0.165456
50	0xbd98c592	-0.074595585
51	0x3e342a2e	0.17594215
52	0xbd42ef6b	-0.047591608
53	0x3d95fddf	0.07323813
54	0xbc087b1f	-0.008330136
55	0xbace0ea2	-0.0015720914
56	0x3cda63e7	0.026658965
57	0xbca3394a	-0.019924778
58	0xbe1643f0	-0.14674354
59	0x3c06d37f	0.008229136
60	0xbe1c0aa4	-0.15238434
61	0x3e4383d3	0.19093256
62	0xbe4233d7	-0.18965088
63	0xbd0fd9d5	-0.03511985
64	0x3e226929	0.15860428
65	0x3b876465	0.004131841
66	0xbe134ccb	-0.14384763
67	0x3c49d443	0.012318674
68	0xbd5374ea	-0.05162517
69	0xbe0d4034	-0.13794023
70	0x3d5ea441	0.054355863
71	0xbd74cfe6	-0.05976858
72	0xbe4b772a	-0.19869676
73	0xbe50b3de	-0.20381114
74	0x3d9a8322	0.07544543
75	0x3cd62d00	0.026144505
76	0xbd93ff81	-0.07226468
77	0xbe5711b2	-0.21002844
78	0xbe3022f2	-0.1720083
79	0x3e639b35	0.22227176
80	0x3dfaf2dc	0.12253353
81	0x3e4b3fd5	0.19848569
82	0xbd585d38	-0.052823275
83	0xbe30967f	-0.1724491
84	0xbd8c4630	-0.06849325
85	0x3e5884e0	0.21144438
86	0xbe1e4a13	-0.15457945
87	0x3d6ccfdb	0.057815414
88	0xbe13fde7	-0.14452325
89	0xbdaeb256	-0.08530109
90	0xbcfd3983	-0.030911213
91	0xbdde60ec	-0.1085833
92	0x3dabaf98	0.08383101
93	0xbd92bc6f	-0.07164847
94	0x3ce953bf	0.028482316
95	0x3e0be511	0.136616
96	0x3e16c01c	0.14721721
97	0x3d028a83	0.031870376
98	0x3e62563d	0.2210321
99	0x3e10a01b	0.14123575
100	0x3e36df5e	0.17858645
101	0x3e44190e	0.19150183
102	0xbe332486	-0.17494401
103	0xbe3109b5	-0.17288859
104	0xbbd0274a	-0.00635234
105	0x3da3218c	0.07965383
106	0x3e35d7d1	0.17758109
107	0xbe168835	-0.14700396
108	0xbe58e9dd	-0.21182962
109	0x3de775a6	0.113017365
110	0x3e5dd522	0.21663335
111	0x3d155013	0.036453318
112	0x3e4aa319	0.1978878
113	0x3e5c536c	0.21516198
114	0x3d3a3862	0.045463927
115	0xbe636f41	-0.22210409
116	0xbe18e35c	-0.1493048
117	0xbded35c4	-0.115825206
118	0x3cc20a79	0.023686634
119	0x3d421332	0.047381587
120	0xbdf1ede6	-0.11812954
121	0x3d7243eb	0.059146803
122	0xbe02b494	-0.12764198
123	0xbdffa857	-0.1248328
124	0xbd2c946d	-0.042133737
125	0x3e49705a	0.19671765
126	0x3e1c9562	0.1529136
127	0xbe444224	-0.19165856
128	0xbe20289b	-0.1564049
129	0x3ddb750a	0.10715683
130	0x3e3a866a	0.18215337
131	0x3db65954	0.08903757
132	0x3e422c12	0.18962124
133	0x3e2d4611	0.1692126
134	0xbd9d20b2	-0.07672252
135	0xbdc84752	-0.09779228
136	0x3e32f8b1	0.1747768
137	0x3e1fba2a	0.1559836
138	0x3ddc326c	0.10751805
139	0xbe61b9f5	-0.22043593
140	0x3da0ec48	0.07857567
141	0x3e59a102	0.21252826
142	0xbe337824	-0.17526299
143	0xbdf0238f	-0.11725532
144	0x3e586883	0.21133618
145	0x3e31bb51	0.17356612
146	0x3e122d9a	0.14275208
147	0x3ced5b78	0.02897428
148	0xbe4b1b56	-0.19834647
149	0x3b5b8a3a	0.0033499137
150	0x3dee1069	0.11624224
151	0xbe44011d	-0.1914105
152	0x3e5f6986	0.21817598
153	0x3d090de4	0.033460513
154	0xbc0e141b	-0.008671786
155	0xbe50c0dd	-0.20386072
156	0xbdca9825	-0.098923005
157	0x3c004d61	0.007830949
158	0x3d99e1ed	0.07513795
159	0xbe1cc501	-0.15309526
160	0x3e42adf0	0.19011664
161	0xbe3b3c3a	-0.18284693
162	0xbd93426e	-0.07190405
163	0xbdfef530	-0.124491096
164	0xbd9e0cc5	-0.07717279
165	0x3d29b520	0.0414325
166	0x3e1215fe	0.14266202
167	0x3d5ce4ad	0.05392902
168	0xbe517b4a	-0.20457187
169	0x3d43ad51	0.04777271
170	0xbd697a3c	-0.057001337
171	0xbe2ad905	-0.16684349
172	0xbd5d0cd1	-0.0539673
173	0xbd938e38	-0.072048604
174	0xbdb1f4b6	-0.08689253
175	0xbcf434b7	-0.029810293
176	0x3e4ef415	0.20210297
177	0xbd3ec526	-0.046574734
178	0xbd338934	-0.04383202
179	0xbe24d5e8	-0.16097224
180	0x3e0bd608	0.13655865
181	0x3db356d2	0.08756794
182	0x3d5d983c	0.05410026
183	0x3c13b845	0.009016101
184	0x3df33b73	0.118765734
185	0xbddca8c0	-0.10774374
186	0x3c401e34	0.011725951
187	0xbdcdb44f	-0.10044157
188	0xbd1ca095	-0.03823908
189	0x3e3294ab	0.17439525
190	0x3e431db8	0.19054306
191	0xbcb2a53c	-0.021807306
192	0x3e5a3d38	0.21312416
193	0xbca59275	-0.020211438
194	0xbe5d3cfb	-0.21605293
195	0xbe4e3c2a	-0.20140138
196	0x3dd28a1d	0.10280249
197	0xbda879a4	-0.08226326
198	0xbde4476a	-0.11146434
199	0xbdc514dd	-0.0962312
200	0xbe54d07f	-0.2078266
201	0xbda0c49f	-0.078500025
202	0xbe32fa6c	-0.17478341
203	0x3e5952b3	0.21222953
204	0xbdf3a97e	-0.118975624
205	0x3dd44c5c	0.10366127
206	0xbcd1d28b	-0.02561309
207	0xbdf4931b	-0.11942121
208	0x3d7d1b7e	0.061793797
209	0x3dc62757	0.09675472
210	0x3ba1dccc	0.004939651
211	0xbd89311f	-0.06698822
212	0xbe5fb14d	-0.21844979
213	0xbdbeaaf6	-0.09309952
214	0x3a9870c1	0.0011630283
215	0xbe38f3f8	-0.18061817
216	0xbbd104a9	-0.0063787294
217	0xbd7e817c	-0.062135205
218	0xbe2b3e5f	-0.16723011
219	0xbe388527	-0.18019544
220	0x3e1b1e89	0.15148367
221	0x3dbecd8c	0.09316549
222	0x3cd8d79e	0.026470002
223	0xbca20df0	-0.019782037
224	0x3e5d1a74	0.21592122
225	0x3df98eaf	0.12185418
226	0xbdfb1337	-0.12259524
227	0x3e3fef54	0.1874364
228	0xbc7294dd	-0.014806
229	0x3e556d64	0.2084251
230	0x3e4ba392	0.19886616
231	0x3d8008db	0.06251689
232	0x3d7db587	0.061940696
233	0x3e19f081	0.15033151
234	0x3dc8552f	0.097818725
235	0xbe1b4e88	-0.15166676
236	0x3d65b5a0	0.056081414
237	0x3dead1ef	0.11465823
238	0x3d44c6d6	0.048041187
239	0xbbbaa5a4	-0.0056960154
240	0xbe53e52c	-0.20692891
241	0x3e3ba4c5	0.18324573
242	0x3dd0bb02	0.10191919
243	0xbe38bb76	-0.1804026
244	0x3d85bcb0	0.0653013
245	0xbdda428b	-0.10657223
246	0xbddcc347	-0.10779434
247	0x3d43ae44	0.047773615
248	0x3e337f78	0.17529094
249	0xbd6d7c25	-0.05797972
250	0xbe0f88a2	-0.14016965
251	0x3d49129f	0.049090024
252	0x3df1af0d	0.118009664
253	0x3e1e6f78	0.1547221
254	0x3e095ad5	0.13413556
255	0xbe319208	-0.17340863

onnx::LSTM_121 f4 [1, 160]
0	0xbe3060ed	-0.17224474
1	0x3dd1ba5a	0.10240622
2	0x3d7efca3	0.062252652
3	0x3e10a327	0.14124738
4	0x3e5dcdf1	0.21660592
5	0x3d7b82d2	0.061404057
6	0xbd8c9384	-0.06864074
7	0x3dbf0134	0.09326401
8	0xbd1175db	-0.035512786
9	0x3d3e0f38	0.046401232
10	0x3e392c29	0.18083252
11	0x3c3dbdfe	0.011580942
12	0xbdf2b749	-0.11851365
13	0xbe1ce7e5	-0.15322836
14	0x3e13c9d3	0.14432459
15	0x3ddfee1a	0.10934086
16	0xbd946ff6	-0.07247917
17	0x3e4f8482	0.20265391
18	0xbd4930ce	-0.04911881
19	0xbe284cc3	-0.16435532
20	0x3c9e32b6	0.01931129
21	0xbd9e6022	-0.0773318
22	0x3cc43b2b	0.023953995
23	0x3c900e12	0.017584834
24	0xbda20534	-0.07911149
25	0xbe615158	-0.22003686
26	0xbe4283a9	-0.18995537
27	0x3e163e72	0.14672258
28	0xbe625d64	-0.22105938
29	0x3c52043e	0.012818394
30	0x3d88fa2f	0.06688344
31	0xbde7d4c0	-0.11319876
32	0xbdf5cd1e	-0.120020136
33	0xbe188c5e	-0.14897296
34	0x3e14cd4c	0.1453144
35	0x3d2ee677	0.042700257
36	0xbd65b982	-0.056085117
37	0xbe62e14d	-0.22156258
38	0x3db6734b	0.08908709
39	0x3e5b39de	0.21408793
40	0x3c8fe075	0.017563084
41	0x3db823ce	0.08991204
42	0xbd9b941a	-0.075966075
43	0xbd52d7bf	-0.051475283
44	0xbd005f93	-0.031341147
45	0xbe0de203	-0.13855748
46	0x3e5215ff	0.20516203
47	0x3e53e457	0.20692573
48	0x3da12ef9	0.078702874
49	0xbd1bf6b3	-0.038077068
50	0x3d875a87	0.066090636
51	0xbe429918	-0.19003713
52	0x3a8c7dd0	0.0010718647
53	0x3e37a8f6	0.17935547
54	0x3d430dc6	0.047620557
55	0xbdff0bb7	-0.12453406
56	0x3e4b24f9	0.19838323
57	0x3df84907	0.12123304
58	0xbd9ab27b	-0.07553574
59	0x3e2ed92b	0.1707503
60	0xbdbfcecf	-0.093656175
61	0x3df4e3d4	0.11957517
62	0xbe635370	-0.22199798
63	0xbe1a755e	-0.15083835
64	0x3e6036b1	0.21895863
65	0xbe4f651b	-0.20253412
66	0xbd8f27d7	-0.06990021
67	0x3dc301da	0.095218375
68	0xbdd554ca	-0.10416563
69	0xbd1612d5	-0.036639053
70	0xbd6386dc	-0.055548534
71	0xbdb9ba5e	-0.0906875
72	0x3dcade10	0.09905636
73	0xbe131abb	-0.14365666
74	0x3d9e5566	0.07731132
75	0x3e6286f3	0.22121792
76	0xbe2575c2	-0.16158202
77	0xbde020c7	-0.10943752
78	0xbde0c9a1	-0.10975958
79	0x3d40c153	0.04705937
80	0x3e635127	0.22198926
81	0x3d4d0c90	0.05006081
82	0xbe551a6d	-0.20810862
83	0xbc492aa8	-0.012278236
84	0xbdabaf5e	-0.08383058
85	0xbe1c616e	-0.15271541
86	0xbe4de424	-0.2010656
87	0xbde1101f	-0.10989403
88	0xbe49511b	-0.19659846
89	0xbdf61250	-0.120152116
90	0x3dd065ed	0.10175691
91	0xbe4ea14a	-0.20178714
92	0xbd82d6bf	-0.06388616
93	0x3e247563	0.16060404
94	0xbdce244f	-0.10065519
95	0xbd8a3f88	-0.06750399
96	0x3d0e6d8c	0.03477244
97	0x3c6fdaa6	0.014639532
98	0xbe08f53d	-0.13374801
99	0x3dfaeae5	0.12251834
100	0xbdbb003f	-0.09130906
101	0xbe0a348e	-0.1349661
102	0x3cddc8c9	0.02707328
103	0xbd19c743	-0.037543546
104	0xbe2a004c	-0.16601676
105	0x3dd044f2	0.101694
106	0xbe2e3e30	-0.1701591
107	0x3e4ef41c	0.20210308
108	0xbd850844	-0.06495717
109	0xbdfa3e3e	-0.12218903
110	0x3d71318d	0.058885146
111	0x3ddf9a76	0.10918133
112	0x3e544f2d	0.20733328
113	0xbdbbe994	-0.09175411
114	0x3e646664	0.22304684
115	0x3d239616	0.039938055
116	0xbdd0c226	-0.10193281
117	0x3e3bf9ca	0.18357006
118	0x3dd389fd	0.103290536
119	0x3e078332	0.13233641
120	0x3e2fa148	0.17151368
121	0x3d04cd4a	0.03242234
122	0xbdb5ab0a	-0.08870514
123	0xbd805c9d	-0.062676646
124	0xbe33a820	-0.17544603
125	0xbe58dbc4	-0.21177584
126	0x3e481da3	0.19542556
127	0xbe2e4285	-0.17017563
128	0xbc4deee1	-0.01256916
129	0x3c297916	0.010343811
130	0x3e2f3ec1	0.17113782
131	0x3e3bd09b	0.18341295
132	0xbd87e48d	-0.066353895
133	0x3d2fc1f7	0.04290959
134	0x3e350525	0.17677744
135	0xbe00fb6e	-0.12595913
136	0xbe077525	-0.13228281
137	0xbdaad90b	-0.08342179
138	0xbc1fd23b	-0.009754713
139	0x3c7b90c5	0.01535434
140	0xbe199bd4	-0.1500085
141	0x3c1467cd	0.009057951
142	0x3adcdfe6	0.0016851395
143	0xbe266024	-0.16247612
144	0x3cf00b01	0.029302122
145	0x3da92619	0.0825922
146	0xbe3d06b1	-0.18459584
147	0xbe500b3f	-0.2031679
148	0xbe4611b3	-0.19342689
149	0x3cb4e44c	0.022081517
150	0xbc3aee17	-0.011409304
151	0xbd15d74c	-0.036582276
152	0x3c980626	0.01855762
153	0x3dbaf3d6	0.09128539
154	0xbe15eed0	-0.14641881
155	0xbe39208d	-0.18078823
156	0xbe28cbdc	-0.16484016
157	0x3e27946d	0.16365214
158	0x3e328c60	0.17436361
159	0x3e327b6f	0.17429899
